sw/baremetal/mlp/model_w8a8_64-64-64-10.pth (torch, 124976 bytes, 4 tensors)

fc1.weight f4 [64, 256]
-0.004351899 -0.033495355 -0.23485991 -0.07961315 -0.093437016 -0.15458894 -0.18638162 -0.021771697
0.20448132 0.01969685 -0.18941228 -0.49690473 -0.34596503 -0.26006606 0.04524202 0.058416277
0.12607402 -0.2599832 -0.26222423 0.0051732925 -0.15072227 -0.3087755 -0.31245884 -0.5573397
-0.5840527 -0.39500427 -0.10227014 -0.22216806 -0.35466936 -0.15333937 0.06867559 -0.1790072
0.15604839 -0.18250121 -0.16588454 -0.09676354 -0.2667993 -0.4659358 -0.44275057 -0.34733665
-0.28445026 -0.17190969 -0.030019825 -0.022166329 0.04581619 0.0053900396 0.012569001 0.05353959
-0.12556277 -0.22326602 -0.27350426 -0.2943005 -0.39130217 -0.2481947 -0.28433868 -0.24954449
-0.12273419 -0.012522146 0.04913596 0.04208857 0.091855966 0.113001235 0.02240305 0.02285754
-0.2239406 -0.20714863 -0.25591815 -0.18852328 -0.07953037 -0.03219241 0.01379692 0.02557881
0.07370788 0.011628497 0.0921998 0.017910559 0.17733584 0.1927836 -0.05627786 0.29380688
0.106448516 -0.18700148 0.005006495 0.18140146 0.216326 0.25716543 0.37530962 0.30757317
0.02692641 -0.17721272 -0.07102879 -0.08451633 0.13906325 0.30823618 0.044773344 0.5267113
-0.14930566 -0.24486405 0.123326935 0.2654538 0.2796224 0.3595295 0.1667892 -0.19900824
-0.14908779 -0.13363828 0.01041277 0.14737521 0.17034689 0.0908423 -0.031335194 0.14049287
0.11272709 0.030618124 0.0198782 -0.14435081 -0.2358231 -0.33082476 -0.43287224 -0.34774384
0.09097254 0.06311902 0.23756593 0.20440824 0.043541383 -0.23823199 -0.18268852 0.20022173
-0.07815826 0.048699595 -0.26759133 -0.47240427 -0.39243674 -0.41307357 -0.08530877 0.22430813
0.098843545 0.11130164 0.22740623 0.086907804 0.048953015 -0.11664362 -0.20474574 0.19974607
0.23032859 -0.016699215 -0.17695318 -0.3317368 -0.086659044 -0.0005120798 0.28417143 0.20846523
0.121011384 0.05619487 0.066989966 0.040044915 0.0034716057 -0.15061323 -0.15016118 0.18696503
0.18729901 0.2198055 -0.090983205 -0.12204148 0.1300519 0.05262993 0.04894474 0.18439671
-0.068723865 -0.14654312 -0.18495038 -0.15291515 -0.16956708 -0.14861982 -0.05697932 0.31308526
-0.062338475 0.10263818 -0.018381592 -0.013300262 0.027793095 0.01254 -0.10419551 -0.12856622
-0.028828008 -0.050330386 -0.04556733 -0.05981518 -0.168251 -0.16626792 -0.12794593 -0.09380739
0.02027686 -0.12467099 0.10770802 -0.07200975 -0.039242305 0.012975081 0.030314036 -0.1685933
0.05349401 -0.030358955 -0.0005651828 -0.013251865 0.07483515 -0.06279902 -0.16076668 -0.34669557
0.13861041 -0.57204497 -0.063421585 0.0031986253 -0.0032591945 -0.0684473 -0.08382991 0.00044445298
-0.064036995 0.039866928 0.008166461 0.080947265 0.056108374 0.18241674 0.16428688 -0.10076556
0.08331542 -0.23161586 0.1708513 0.14524058 0.030741435 -0.02413358 0.0588453 0.014699257
0.06948067 0.014379686 -0.0059777526 0.054741252 -0.0438394 -0.2401281 -0.006549319 0.0108232
-0.045070507 -0.012784282 -0.019743318 0.08456484 0.53503495 0.46508312 0.10156714 0.123189494
0.40933293 -0.07907053 0.056779586 0.1725614 -0.076541394 -0.30582857 -0.24757743 0.15029576
00000000: 609a 8ebb 6d32 09bd 1e7f 70be 380c a3bd
00000010: e85b bfbd 904c 1ebe d3da 3ebe 8f5a b2bc
00000020: 8d63 513e 4a5b a13c 4bf5 41be 4c6a febe
00000030: 5422 b1be 6127 85be b24f 393d e845 6f3d
00000040: 8c19 013e 851c 85be 4142 86be b984 a93b
00000050: f056 1abe d317 9ebe 9bfa 9fbe d1ad 0ebf
00000060: 7a84 15bf 003e cabe 0273 d1bd 0680 63be
00000070: 3997 b5be ff04 1dbe caa5 8c3d aa4d 37be
00000080: 26cb 1f3e 99e1 3abe a3dd 29be f62b c6bd
00000090: eb99 88be 238f eebe 34b0 e2be 1cd6 b1be
000000a0: 77a3 91be 1809 30be 23ec f5bc 2996 b5bc
000000b0: c2a9 3b3d ee9e b03b 36ee 4d3c 544c 5b3d
000000c0: 8793 00be d99f 64be c008 8cbe 8eae 96be
000000d0: c258 c8be c026 7ebe d794 91be 9788 7fbe
000000e0: 105c fbbd b029 4dbc ca42 493d 1065 2c3d
000000f0: fb1e bc3d 316d e73d 9a86 b73c bc3f bb3c
00000100: af50 65be c51e 54be b407 83be 3f0c 41be
00000110: d2e0 a2bd 30dc 03bd 7a0c 623c a78a d13c
00000120: 28f4 963d 7485 3e3c 40d3 bc3d 2ab9 923c
00000130: 8797 353e 1069 453e 9d83 66bd db6d 963e
00000140: ae01 da3d 517d 3fbe 860d a43b 4ec1 393e
00000150: 9084 5d3e 30ab 833e 9528 c03e 3b7a 9d3e
00000160: c694 dc3c 4077 35be 8b77 91bd e616 adbd
00000170: 9966 0e3e 22d1 9d3e 4164 373d 8dd6 063f
00000180: 95e3 18be a4bd 7abe d592 fc3d 8fe9 873e
00000190: ab2a 8f3e 4014 b83e caca 2a3e d1c8 4bbe
000001a0: 78aa 18be 79d8 08be 539a 2a3c 87e9 163e
000001b0: 6a6f 2e3e 870b ba3d 5559 00bd 5ddd 0f3e
000001c0: 76dd e63d dcd2 fa3c 9bd7 a23c b3d0 13be
000001d0: 9c7b 71be dd61 a9be 6ea1 ddbe 7b0b b2be
000001e0: d04f ba3d 8b44 813d 7c44 733e 6550 513e
000001f0: 7358 323d 16f3 73be b312 3bbe ed06 4d3e
00000200: 7011 a0bd 3a79 473d bb01 89be f9de f1be
00000210: 78ed c8be 617e d3be 5db6 aebd 08b1 653e
00000220: 7c6e ca3d 1df2 e33d 2edd 683e b8fc b13d
00000230: f582 483d dae2 eebd dea8 51be 3c8a 4c3e
00000240: 42db 6b3e cbcc 88bc 3733 35be 68d9 a9be
00000250: 4c7a b1bd 183d 06ba eb7e 913e e977 553e
00000260: d1d4 f73d 982c 663d 0932 893d 2306 243d
00000270: e183 633b 5b3a 1abe dac3 19be c373 3f3e
00000280: 50cb 3f3e b114 613e 6755 babd e2f0 f9bd
00000290: 532c 053e 7b92 573d 487a 483d 7ed2 3c3e
000002a0: 19bf 8cbd 660f 16be a263 3dbe ca95 1cbe
000002b0: fea2 2dbe cb2f 18be 2663 69bd b64c a03e
000002c0: a156 7fbd f733 d23d fe94 96bc 58e9 59bc
000002d0: 58ae e33c 9274 4d3c 7564 d5bd dda6 03be
000002e0: b728 ecbc 3c27 4ebd cfa4 3abd c300 75bd
000002f0: fd49 2cbe 2342 2abe 4204 03be 171e c0bd
00000300: a81b a63c 8153 ffbd 0696 dc3d d979 93bd
00000310: 8abc 20bd 6f95 543c 2455 f83c b9a3 2cbe
00000320: 891c 5b3d 58b3 f8bc c728 14ba 5a1e 59bc
00000330: 2c43 993d c69c 80bd 05a0 24be 1582 b1be
00000340: e3ef 0d3e 8a71 12bf 2de3 81bd 07a0 513b
00000350: 3698 55bb 192e 8cbd 04af abbd 7805 e939
00000360: d425 83bd 814b 233d 9fcc 053c aec7 a53d
00000370: e5d1 653d 74cb 3a3e d23a 283e 2d5e cebd
00000380: 46a1 aa3d b52c 6dbe a5f3 2e3e f2b9 143e
00000390: 76d5 fb3c c9b3 c5bc c507 713d 27d5 703c
000003a0: e24b 8e3d c698 6b3c 06e1 c3bb 5d38 603d
000003b0: f190 33bd 24e4 75be ab9b d6bb cb53 313c
000003c0: da9b 38bd 2a75 51bc bdbc a1bc 5530 ad3d
000003d0: 0df8 083f 601f ee3e 6f02 d03d c64a fc3d
000003e0: 1694 d13e bbef a1bd b691 683d f0b3 303e
000003f0: bcc1 9cbd 9095 9cbe f084 7dbe 22e7 193e

fc2.weight f4 [64, 64]
-0.3563262 0.13832958 0.07980553 -0.19499508 0.079947636 -0.00883443 -0.18018387 0.023398573
0.07758391 -0.41414276 -0.04861483 0.24385887 0.30606866 -0.16210043 0.026558613 -0.010273519
0.42267823 0.22930644 0.06623271 0.17204884 0.024571322 -0.042888153 -0.12077123 0.15150853
0.12337197 0.15855329 0.16578652 0.09272436 0.016037732 -0.0071631996 -0.37523615 -0.06414416
-0.12784116 -0.6056679 -0.18188286 -0.29511225 -0.24596949 0.24052681 0.32658094 -0.0018116591
0.14398564 -0.25408337 -0.15658775 0.14628012 0.26358417 0.13118464 -0.1807397 -0.05339711
0.058506567 -0.30077264 0.17383637 0.41815647 0.23058002 0.27876338 0.16322288 0.14728029
0.1358621 -0.046394166 0.042058505 -0.41185093 -0.060832072 0.06477241 0.18169746 -0.055175193
-0.043915488 0.17145392 -0.0125795035 -0.028564665 -0.46948007 -0.00499131 0.15675713 -0.10978574
-0.073271014 -0.07773283 -0.18267313 -0.074803606 -0.31611452 0.055144288 0.088241436 -0.2371472
0.4052143 0.47080138 -0.06705745 0.14641827 -0.038580112 0.24930395 -0.19265915 -0.13093467
-0.18312849 0.11586072 -0.061652552 -0.005559306 0.20830041 -0.15512674 -0.23159356 0.2699144
0.29418248 0.44980952 -0.04611609 0.17124127 -0.09044511 0.17724408 0.005451235 -0.031867698
-0.0916048 -0.2136501 -0.08185207 0.32947668 0.015616289 0.056687117 -0.21454883 0.10420816
-0.08062276 0.29742828 -0.051392004 0.2947842 0.063074745 0.11822145 -0.21771164 -0.29503644
0.044525493 -0.22125192 0.2991054 -0.15446061 0.1354054 0.034157693 -0.16687262 -0.032620393
-0.22927648 -0.021118607 0.19618048 0.33004665 0.1765415 0.15043162 -0.25576416 0.038404346
0.21262962 -0.07406798 0.04385797 0.04390376 -0.38187775 -0.116405025 -0.0741638 -0.07632884
0.32300946 0.022439877 0.082781866 0.30261573 0.078598194 -0.032243334 0.016960539 -0.13368745
0.13025181 0.3033879 -0.055277735 0.22966078 -0.21463601 -0.20849113 -0.2193076 0.07910225
0.23020802 -0.50252885 -0.33495265 0.07591168 0.0018670395 0.28652403 0.28085378 -0.07969525
-0.04866826 -0.13722415 -0.10866424 -0.18858029 -0.39455366 -0.16191201 -0.27484152 -0.12342207
-0.48612198 -0.35663402 -0.23179927 0.078932434 0.13434735 0.4565202 0.11231173 -0.38269353
-0.052377947 0.09616376 -0.16732815 0.24055947 0.47861856 -0.011232482 -0.4260635 0.011907999
-0.47291613 -0.028508486 0.117694415 0.24516378 0.019304521 -0.14675517 -0.53635675 0.0942947
0.2619972 -0.07652022 -0.14510147 -0.05162093 0.13089184 -0.028865876 -0.008539297 0.15468167
-0.0148341665 0.24524778 0.07130089 0.18459694 0.018421475 0.24488157 -0.39592183 -0.018373044
0.090277776 0.04424606 -0.063367866 0.17957322 0.21058339 0.06428824 0.14443128 -0.10621309
0.06908987 0.11040384 0.10194003 0.27058214 0.042812064 0.12661955 0.27367285 -0.14467807
0.16879217 -0.16263624 -0.17416649 -0.07547915 0.08762454 0.040253263 -0.15611252 0.10084232
0.20919628 -0.47573456 0.29236177 0.34720367 0.06857873 0.33499807 0.09682334 0.015569168
0.27866563 -0.26325923 -0.23892316 -0.11661716 -0.068784915 0.05898001 -0.027011149 -0.020514771
00000000: 6370 b6be 45a6 0d3e 1571 a33d caac 47be
00000010: 96bb a33d 49be 10bc 1f82 38be 5dae bf3c
00000020: 50e4 9e3d 850a d4be 5820 47bd 24b6 793e
00000030: 08b5 9c3e a8fd 25be 7391 d93c 4352 28bc
00000040: 4869 d83e 4fcf 6a3e 04a5 873d 922d 303e
00000050: cc49 c93c 7dab 2fbd e856 f7bd 0d25 1b3e
00000060: 72aa fc3d cb5b 223e f1c3 293e 45e6 bd3d
00000070: 9061 833c 46b9 eabb f41e c0be 035e 83bd
00000080: cbe8 02be 0d0d 1bbf 803f 3abe f418 97be
00000090: 6ddf 7bbe a94c 763e 9e35 a73e 3175 edba
000000a0: f970 133e 3717 82be 8a58 20be 75ca 153e
000000b0: 81f4 863e 4455 063e d413 39be eeb6 5abd
000000c0: 95a4 6f3d dffe 99be 2902 323e 9b18 d63e
000000d0: 2b1d 6c3e 13ba 8e3e e623 273e a5d0 163e
000000e0: 6f1f 0b3e cf07 3ebd 8a45 2c3d 20de d2be
000000f0: 0d2b 79bd 66a7 843d e60e 3a3e 62ff 61bd
00000100: bae0 33bd 9e91 2f3e 431a 4ebc 7200 eabc
00000110: b15f f0be 258e a3bb f184 203e 59d7 e0bd
00000120: 1d0f 96bd 6432 9fbd aa0e 3bbe a232 99bd
00000130: c3d9 a1be fade 613d edb7 b43d b7d6 72be
00000140: 4078 cf3e e10c f13e 6b55 89bd acee 153e
00000150: 2e06 1ebd 8949 7f3e 7148 45be bd13 06be
00000160: 0986 3bbe 6348 ed3d 6387 7cbd d72a b6bb
00000170: b44c 553e 8bd9 1ebe dd26 6dbe 3832 8a3e
00000180: 169f 963e 6f4d e63e 3ae4 3cbd df59 2f3e
00000190: 493b b9bd 797f 353e 46a0 b23b b487 02bd
000001a0: 4c9b bbbd 18c7 5abe 0fa2 a7bd 2bb1 a83e
000001b0: 77db 7f3c c030 683d b0b2 5bbe 166b d53d
000001c0: 8c1d a5bd 8548 983e 6c80 52bd f4ed 963e
000001d0: 552d 813d 161e f23d cdef 5ebe 040f 97be
000001e0: 5d60 363d dd8f 62be 5824 993e ec2a 1ebe
000001f0: b7a7 0a3e f0e8 0b3d a8e0 2abe f69c 05bd
00000200: 74c7 6abe ee00 adbc 89e3 483e e0fb a83e
00000210: 4cc7 343e bf0a 1a3e 85f3 82be e04d 1d3d
00000220: 94bb 593e f4b0 97bd 6aa4 333d 6ed4 333d
00000230: 7b85 c3be c265 eebd 31e3 97bd 4b52 9cbd
00000240: 7f61 a53e d5d3 b73c 8a89 a93d 73f0 9a3e
00000250: 17f8 a03d 9611 04bd d4f0 8a3c 5de5 08be
00000260: bb60 053e a955 9b3e e86a 62bd 322c 6b3e
00000270: 8bc9 5bbe b37e 55be 2c92 60be 5c00 a23d
00000280: a7bb 6b3e bba5 00bf ea7e abbe 9577 9b3d
00000290: 73b7 f43a 47b3 923e 11cc 8f3e 4337 a3bd
000002a0: 5f58 47bd 7d84 0cbe 5b8b debd 311b 41be
000002b0: f002 cabe 43cc 25be 07b8 8cbe b6c4 fcbd
000002c0: fbe4 f8be bc98 b6be ca5c 6dbe 54a7 a13d
000002d0: 5a92 093e 04bd e93e b103 e63d 68f0 c3be
000002e0: 428a 56bd 81f1 c43d 1258 2bbe 3955 763e
000002f0: 7e0d f53e 7208 38bc ff24 dabe c519 433c
00000300: 1022 f2be a18a e9bc c509 f13d 370c 7b3e
00000310: 8424 9e3c fd46 16be ad4e 09bf 941d c13d
00000320: 7f24 863e a2b6 9cbd 7b95 14be 7870 53bd
00000330: 8308 063e 2178 ecbc 68e8 0bbc df64 1e3e
00000340: 010b 73bc 3c22 7b3e 3306 923d fb06 3d3e
00000350: a2e8 963c 3cc2 7a3e 44b6 cabe 1183 96bc
00000360: 8ee3 b83d 5b3b 353d 03c7 81bd 0be2 373e
00000370: 2ca3 573e 8ea9 833d cbe5 133e 4086 d9bd
00000380: fd7e 8d3d 691b e23d efc5 d03d be89 8a3e
00000390: b45b 2f3d 8ea8 013e d91e 8c3e 7d26 14be
000003a0: dbd7 2c3e 1d8a 26be b358 32be d094 9abd
000003b0: 7f74 b33d 9be0 243d f6db 1fbe 6b86 ce3d
000003c0: 8d37 563e 7b93 f3be 71b0 953e aec4 b13e
000003d0: 0173 8c3d de84 ab3e 514b c63d d315 7f3c
000003e0: 43ad 8e3e eac9 86be 46a8 74be fad4 eebd
000003f0: 1bdf 8cbd 0695 713d 7c46 ddbc 980e a8bc

fc3.weight f4 [64, 64]
0.020689046 0.041364487 -0.2004049 0.10576413 -0.1746882 0.06441201 0.27671108 -0.19649762
-0.097047746 -0.22697124 0.08897744 0.04221618 -0.21339968 0.13091594 -0.03656874 0.31471846
-0.0841992 0.10287469 0.08241359 0.06807573 -0.18409957 0.024175862 0.08831268 0.16843165
-0.27539182 0.0045862934 0.14233702 0.24412718 0.40620914 0.09215047 0.4003094 -0.3575858
0.46368152 0.26241738 0.5432065 -0.09977274 0.047510497 -0.027620893 0.13676365 -0.07218937
-0.0030480458 -0.044966687 -0.015848652 -0.20569402 -0.24216105 0.036113895 0.1044247 -0.07690805
0.5112156 -0.009829071 0.034094013 -0.103299126 0.020436425 -0.09647503 0.2796449 0.048518952
0.21589334 -0.16151397 -0.1865252 -0.16791762 0.17797588 -0.1626429 -0.028044691 0.02824622
0.2102879 -0.23308459 0.19391532 -0.27928928 -0.07018543 0.17953266 -0.072282344 -0.017460393
-0.14349315 -0.09691684 0.12342352 -0.00432128 -0.052689984 0.040653516 -0.21634284 0.2041744
0.11788735 -0.25535294 0.13260068 0.12010056 0.17412007 0.31377447 0.13741675 0.04449492
-0.22694567 0.055527862 -0.06271625 -0.03594879 -0.048487276 -0.35833907 0.037476383 0.13299975
0.012981248 0.027949112 -0.11134524 0.09552885 -0.66907793 0.15897423 -0.1811737 0.064734995
-0.040267948 0.0834466 0.12150551 -0.07489047 0.04927355 0.09982514 -0.0033339805 0.07002577
-0.061871406 -0.026800912 0.074238196 0.07606611 0.18047029 0.051608235 0.19747369 -0.12084771
-0.1315284 -0.11817695 -0.15851605 0.19215967 0.09814182 0.069111235 0.12414281 0.19018108
-0.21523109 0.20938164 0.06891138 -0.26271057 0.09403783 0.2974652 -0.15613692 -0.07859422
-0.019808538 0.27040157 -0.041622818 0.21017803 0.26537505 0.01233771 0.06709956 -0.101358205
0.011198166 -0.2645575 0.06918007 0.13274688 0.12769563 -0.1289208 0.038911857 0.13356055
0.41003177 0.046297126 0.054490473 -0.13645756 -0.18106374 0.04648546 -0.2962694 0.15912421
-0.111612685 0.07457741 -0.030644557 0.027132228 -0.14808306 -0.104376525 0.15892525 0.18802172
-0.14823301 -0.16596273 0.20842001 0.22366469 -0.07792279 0.1370364 0.21815473 0.003511153
-0.2873178 -0.08606658 0.23962449 -0.019111797 -0.034478623 -0.07373495 0.021640236 0.09957349
0.17195848 0.09456266 -0.0019202799 0.071753874 -0.012844926 -0.020337526 -0.20649163 -0.08545273
-0.022346308 -0.092929035 0.0072069755 -0.017920235 0.0011900517 -0.023790605 -0.08985861 0.07493227
0.03568253 -0.106142685 0.11778164 -0.052983247 -0.09240867 -0.101361096 -0.004404028 0.02262708
-0.128428 0.023772787 -0.056653798 -0.06122509 -0.10619431 -0.023591517 -0.041637797 -0.11442981
-0.054143615 -0.09605744 0.048105806 -0.026542667 -0.105661035 0.02325093 -0.11692406 0.03316236
-0.08385601 0.036707737 -0.08845386 0.038539134 0.06701217 0.02377559 0.091505624 0.05152318
-0.03963268 0.084024824 0.112563655 -0.05219295 -0.026481988 -0.009351496 0.04519849 0.037429925
-0.12066647 0.044580102 0.076287106 -0.022328287 -0.050124034 -0.005275724 -0.018804776 0.03768073
-0.008501516 -0.13743563 -0.07346796 -0.10004603 -0.003795593 0.06473698 -0.009499963 -0.12659718
00000000: 137c a93c cf6d 293d f136 4dbe dd9a d83d
00000010: 77e1 32be 72ea 833d 13ad 8d3e ac36 49be
00000020: f8c0 c6bd 266b 68be ce39 b63d e0ea 2c3d
00000030: 7285 5abe d40e 063e 1ac9 15bd c722 a13e
00000040: a170 acbd f7af d23d 75c8 a83d 4a6b 8b3d
00000050: 9984 3cbe 750c c63c 47dd b43d 5979 2c3e
00000060: 2800 8dbe 9e48 963b ccc0 113e 7afc 793e
00000070: a5fa cf3e 63b9 bc3d 5bf5 cc3e 7c15 b7be
00000080: aa67 ed3e 925b 863e 950f 0b3f a655 ccbd
00000090: 5e9a 423d 3645 e2bc c50b 0c3e 05d8 93bd
000000a0: b9c1 47bb fd2e 38bd 08d5 81bc 74a1 52be
000000b0: 11f9 77be 2aec 133d 9edc d53d f881 9dbd
000000c0: 07df 023f 1d0a 21bc 2aa6 0b3d 7e8e d3bd
000000d0: 4a6a a73c b394 c5bd 9e2d 8f3e cfbb 463d
000000e0: 2513 5d3e eb63 25be 7600 3fbe 99f2 2bbe
000000f0: 4f3f 363e dc8b 26be fbbd e5bc 9e64 e73c
00000100: b655 573e baad 6ebe bd91 463e 01ff 8ebe
00000110: 61bd 8fbd 69d7 373e c408 94bd 1909 8fbc
00000120: deef 12be 567c c6bd 78c5 fc3d 8699 8dbb
00000130: 74d1 57bd 4d84 263d fa88 5dbe 1813 513e
00000140: ec6e f13d 9fbd 82be 79c8 073e 48f7 f53d
00000150: 884c 323e 0ca7 a03e fab6 0c3e 4e40 363d
00000160: 7264 68be 2f71 633d 6171 80bd 0a3f 13bd
00000170: 989a 46bd 3878 b7be d680 193d 1631 083e
00000180: 4daf 543c 89f5 e43c f908 e4bd a1a4 c33d
00000190: b148 2bbf 24ca 223e 9985 39be c893 843d
000001a0: 01f0 24bd 0de6 aa3d e1d7 f83d 2d60 99bd
000001b0: 10d3 493d 1f71 cc3d e97e 5abb ac69 8f3d
000001c0: df6c 7dbd 968d dbbc 320a 983d 8cc8 9b3d
000001d0: 34cd 383e 2863 533d 8b36 4a3e 017f f7bd
000001e0: 62af 06be c206 f2bd 0852 22be 81c5 443e
000001f0: 94fe c83d 318a 8d3d 963e fe3d d4be 423e
00000200: 8a65 5cbe 2468 563e 6921 8d3d 0082 86be
00000210: e896 c03d 5c4d 983e 5be2 1fbe 02f6 a0bd
00000220: 8445 a2bc 1372 8a3e b07c 2abd e938 573e
00000230: 3ddf 873e 1b24 4a3c 7e6b 893d e494 cfbd
00000240: 8378 373c 1574 87be 48ae 8d3d ccee 073e
00000250: a5c2 023e d003 04be 0a62 1f3d 19c4 083e
00000260: afef d13e 0ea2 3d3d 6731 5f3d 88bb 0bbe
00000270: c668 39be 8a67 3e3d 9fb0 97be 75f1 223e
00000280: 3195 e4bd 0bbc 983d 4b0a fbbc 6844 de3c
00000290: 16a3 17be 5cc3 d5bd 4dbd 223e c488 403e
000002a0: 65ca 17be 22f2 29be 0e6c 553e 5b08 653e
000002b0: fc95 9fbd 4553 0c3e f463 5f3e 5f1b 663b
000002c0: 521b 93be ad43 b0bd 1f60 753e 5890 9cbc
000002d0: 7539 0dbd 5902 97bd dd46 b13c 30ed cb3d
000002e0: e215 303e 11aa c13d e7b1 fbba b2f3 923d
000002f0: 8673 52bc e29a a6bc 8b72 53be d701 afbd
00000300: 9b0f b7bc 9451 bebd 7e28 ec3b 75cd 92bc
00000310: 82fb 9b3a 84e4 c2bc ca07 b8bd 1776 993d
00000320: d827 123d 5661 d9bd 8037 f13d f604 59bd
00000330: c240 bdbd 6896 cfbd aa4f 90bb 6d5c b93c
00000340: a182 03be 26bf c23c d00d 68bd 29c7 7abd
00000350: 677c d9bd ff42 c1bc 658c 2abd 2d5a eabd
00000360: b2c5 5dbd c3b9 c4bd 980a 453d 0270 d9bc
00000370: d064 d8bd bc78 be3c e275 efbd 41d5 073d
00000380: b3bc abbd da5a 163d 4c27 b5bd 36db 1d3d
00000390: ad3d 893d 07c5 c23c 4d67 bb3d f809 533d
000003a0: e155 22bd 3515 ac3d c687 e63d 46c8 55bd
000003b0: c1f0 d8bc 0437 19bc 0d22 393d 1f50 193d
000003c0: fb1f f7bd a099 363d 6a3c 9c3d d0e9 b6bc
000003d0: dc4e 4dbd fbdf acbb 790c 9abc 1c57 1a3d
000003e0: f149 0bbc edbb 0cbe 5f76 96bd efe4 ccbd
000003f0: 7cbf 78bb d294 843d bca5 1bbc b1a2 01be

fc_last.weight f4 [10, 64]
-0.19703704 -0.19490322 -0.05320977 -0.0732142 -0.5745689 0.20954439 0.0007103828 0.1397326
-0.3686559 -0.04730583 0.31767488 -0.3172747 0.007550627 -0.2346774 -0.162047 0.19714384
0.20310822 -0.034751695 -0.054607105 -0.26889116 -0.26007396 -0.04519453 0.048051216 -0.0118384
-0.4409072 -0.05873978 -0.09909826 0.035296604 -0.34142578 0.0048536127 0.08380908 -0.004383827
0.043538656 -0.12260248 0.1423725 -0.47891685 -0.32351255 -0.23187515 0.23280813 -0.072203375
-0.1828495 0.18984914 0.14631777 0.17356718 0.2809787 -0.05355484 0.008266393 0.01417512
0.110175006 0.088705614 -0.18784584 -0.22085004 0.08637215 -0.46660262 -0.008882498 0.2746573
-0.23985644 0.14232393 -0.4006913 0.2153331 -0.05552396 -0.053253103 0.11543622 -0.2592418
0.26341027 -0.10389689 0.039868794 -0.012185478 0.26446036 -0.28660676 0.031073065 -0.16760637
-0.23251557 0.12085984 0.28004506 -0.15974613 -0.026876777 0.12972923 0.19437227 -0.43773162
-0.2839314 -0.11819647 0.06981817 0.18762565 0.03091168 0.07934233 -0.170868 0.14191265
0.006062774 0.19728361 -0.463612 -0.05385329 0.0009850739 -0.1224677 -0.36184275 0.19600354
-0.34141007 -0.051518265 -0.39106324 -0.2459564 0.15502495 0.17066163 -0.29008535 -0.22051492
0.058064017 -0.008256639 -0.32955962 -0.30479532 -0.1668025 -0.01831924 0.25256708 0.45813352
0.022639334 -0.3718114 0.27976543 0.22257663 -0.14739649 0.12454415 -0.53350997 0.080813505
-0.17728148 0.1302493 0.07104074 0.12524208 0.15819235 -0.08281878 -0.29462075 0.2504816
0.24422732 0.20526601 0.034391258 0.023576582 0.015462039 -0.08199459 -0.047175065 0.04448152
0.028398091 0.17332655 -0.12297479 0.1841195 0.04533018 0.03763609 0.22865988 0.1025659
-0.13753872 0.11469191 -0.12039676 -0.4000313 0.13092099 0.0036612668 -0.19699119 -0.4026193
-0.38683528 -0.04805871 0.2249084 0.11782144 -0.06798129 -0.09755116 0.07134841 -0.10193796
-0.08320309 0.0067597385 -0.08040184 -0.3847527 0.26988465 0.23909184 0.18977194 -0.030262401
-0.02854665 -0.03572668 0.12396736 0.16132073 -0.122461095 -0.10781082 0.012438766 0.44562155
-0.23703232 0.05223901 -0.04503714 -0.38579884 0.07420674 -0.18595873 0.19830172 -0.17202772
-0.45563513 0.19490834 -0.51418024 -0.13456327 -0.28558105 0.053295065 0.10107288 0.22214302
-0.11624537 -0.12606083 0.18720698 -0.11153533 0.14809597 -0.19328375 0.04805733 0.20377952
0.118915185 -0.052056085 -0.16192408 0.21693806 -0.10511434 -0.075384915 0.06960647 -0.06092443
-0.3127553 0.0314483 0.08396501 -0.60934263 -0.15624584 0.009302882 0.0487063 0.044897046
0.17987663 0.19244035 -0.22083585 -0.10397214 0.297425 0.100856096 -0.019558324 0.25208437
0.11138854 0.13623573 -0.06059366 0.28135964 -0.117266394 -0.062189832 -0.0998558 -0.06857964
-0.23755239 -0.13490088 -0.31667215 -0.04101001 0.16000149 0.114295185 -0.07568451 -0.47809264
-0.06944822 -0.1903025 0.030736892 -0.35443753 0.034852494 -0.13272159 0.24173504 -0.18688658
0.23881356 0.13763268 -0.35614094 -0.3153923 -0.23463604 0.10135313 0.26523536 0.24175394
00000000: 14c4 49be b694 47be 7df2 59bd 54f1 95bd
00000010: f316 13bf ce92 563e fc38 3a3a 1016 0f3e
00000020: 77c0 bcbe c2c3 41bd 48a6 a23e d471 a2be
00000030: 406b f73b 464f 70be a6ef 25be 13e0 493e
00000040: 9afb 4f3e cb57 0ebd b3ab 5fbd 1aac 89be
00000050: 6a28 85be e61d 39bd 5ad1 443d d9f5 41bc
00000060: 97be e1be 2099 70bd 07f4 cabd 2c93 103d
00000070: 5ccf aebe 0e0b 9f3b 18a4 ab3d 35a6 8fbb
00000080: 9755 323d 0217 fbbd 19ca 113e 9734 f5be
00000090: 70a3 a5be ae70 6dbe 4165 6e3e 5ddf 93bd
000000a0: e63c 3bbe d067 423e 53d4 153e 98bb 313e
000000b0: 71dc 8f3e 525c 5bbd c46f 073c c33e 683c
000000c0: 6fa3 e13d 4aab b53d a95a 40be 8326 62be
000000d0: e2e3 b03d 8ae6 eebe e687 11bc e29f 8c3e
000000e0: ed9c 75be 5dbd 113e 6927 cdbe 4880 5c3e
000000f0: 186d 63bd ed1f 5abd d369 ec3d 57bb 84be
00000100: b6dd 863e e5c7 d4bd 764d 233d 99a5 47bc
00000110: 5967 873e 1fbe 92be f18c fe3c 01a1 2bbe
00000120: 9018 6ebe 5d85 f73d 1162 8f3e 7d94 23be
00000130: b02c dcbc bdd7 043e 8609 473e 5c1e e0be
00000140: 755f 91be fe10 f2bd d4fc 8e3d f020 403e
00000150: 7e3a fd3c 3b7e a23d 05f8 2ebe 8d51 113e
00000160: 3caa c63b b704 4a3e 8d5e edbe 4495 5cbd
00000170: 981d 813a 58d0 fabd 7443 b9be 27b5 483e
00000180: 4dcd aebe d104 53bd 7139 c8be ffdb 7bbe
00000190: dcbe 1e3e ecc1 2e3e 1186 94be aace 61be
000001a0: 89d4 6d3d db46 07bc 0abc a8be 220e 9cbe
000001b0: 46ce 2abe 3b12 96bc 7950 813e 7a90 ea3e
000001c0: 2076 b93c 105e bebe 6a3d 8f3e 21eb 633e
000001d0: 1bef 16be 0111 ff3d 1c94 08bf 8d81 a53d
000001e0: 4789 35be 1360 053e cf7d 913d 763f 003e
000001f0: 2dfd 213e e49c a9bd 88d8 96be 203f 803e
00000200: ba16 7a3e 4131 523e d9dd 0c3d ad23 c13c
00000210: 7e54 7d3c c8ec a7bd a43a 41bd 4132 363d
00000220: 1da3 e83c 847c 313e 35da fbbd d289 3c3e
00000230: 24ac 393d 4d28 1a3d d125 6a3e 120e d23d
00000240: f3d6 0cbe 98e3 ea3d 9492 f6bd e7d0 ccbe
00000250: 2710 063e ddf1 6f3b 0fb8 49be 1e24 cebe
00000260: 460f c6be 36d9 44bd 634e 663e 5e4c f13d
00000270: c639 8bbd e7c8 c7bd 1d1f 923d d9c4 d0bd
00000280: 6266 aabd cc80 dd3b b8a9 a4bd 4efe c4be
00000290: 522e 8a3e 7ed4 743e 9353 423e dbe8 f7bc
000002a0: aada e9bc 2456 12bd 99e2 fd3d 4331 253e
000002b0: e2cc fabd ebcb dcbd f7cb 4b3c 8228 e43e
000002c0: 9ab8 72be 92f8 553d dd78 38bd 6d87 c5be
000002d0: b4f9 973d f76b 3ebe 9b0f 4b3e 0928 30be
000002e0: 0249 e9be 0d96 473e 51a1 03bf f4ca 09be
000002f0: ae37 92be ed4b 5a3d 4cff ce3d 7679 633e
00000300: 0d12 eebd 1716 01be 30b3 3f3e a36c e4bd
00000310: 78a6 173e 2dec 45be c3d7 443d 94ab 503e
00000320: ce89 f33d c338 55bd 6dcf 25be 0325 5e3e
00000330: 3046 d7bd 6863 9abd d68d 8e3d e58b 79bd
00000340: 7621 a0be efcf 003d d9f5 ab3d e1fd 1bbf
00000350: e9fe 1fbe 1d6b 183c 4280 473d f7e5 373d
00000360: 9431 383e 150f 453e cb22 62be 58ef d4bd
00000370: 1748 983e a48d ce3d c738 a0bc 3411 813e
00000380: ad1f e43d 6181 0b3e 0f31 78bd 5f0e 903e
00000390: 5d29 f0bd c4ba 7ebd 3381 ccbd 7b73 8cbd
000003a0: ef40 73be 7523 0abe da22 a2be 1dfa 27bd
000003b0: 6ed7 233e 9813 ea3d 7b00 9bbd 8fc8 f4be
000003c0: de3a 8ebd a9de 42be efcb fb3c d678 b5be
000003d0: 7dc1 0e3d 2be8 07be 6489 773e 325f 3fbe
000003e0: 8b8b 743e 95ef 0c3e 1b58 b6be 197b a1be
000003f0: 6e44 70be 3b92 cf3d eecc 873e 588e 773e
