sw/baremetal/mlp/model_w4a8_64-64-64-10.pth (torch, 125161 bytes, 4 tensors)

fc1.weight f4 [64, 256]
0	0xbd4889cc	-0.04895954
1	0xbc78d855	-0.015188296
2	0x3d809147	0.062777095
3	0xbdd7a71c	-0.105299205
4	0xbdb6dfd7	-0.08929413
5	0xbe489c85	-0.19590957
6	0xbe036a11	-0.1283343
7	0xbdec877b	-0.11549278
8	0xbe0606cc	-0.1308853
9	0xbc08fda8	-0.008361258
10	0xbe40604d	-0.18786736
11	0xbe9537ee	-0.29144233
12	0xbe055a78	-0.13022792
13	0xbe320d0e	-0.17387792
14	0xbd91adf1	-0.07113255
15	0xbc4a8628	-0.012361087
16	0x3d76ba79	0.060236428
17	0x3d8a00ed	0.06738458
18	0xbd8425f2	-0.0645255
19	0xbe6032e8	-0.21894419
20	0xbe6ab5d2	-0.22920921
21	0xbe81c73d	-0.2534732
22	0xbe807eda	-0.2509678
23	0xbe901f4b	-0.28148875
24	0xbe83981f	-0.25701997
25	0xbe8b8060	-0.2724638
26	0xbe9eef7c	-0.31042087
27	0xbea017bf	-0.31268117
28	0xbe9b1417	-0.30288765
29	0xbe18a549	-0.14906801
30	0xbdff428e	-0.12463866
31	0xbd405bb0	-0.04696244
32	0xbd08a44c	-0.03335981
33	0x3c7f1478	0.015568845
34	0xbdfa72ce	-0.122289285
35	0xbe32baa5	-0.17454012
36	0xbe62184e	-0.22079584
37	0xbe850266	-0.25978392
38	0xbe6ac3cf	-0.22926258
39	0xbdb22247	-0.08697944
40	0xbd8077ad	-0.06272826
41	0xbdd14d8e	-0.102198705
42	0xbdf4cac7	-0.11952739
43	0xbd3f3035	-0.046676833
44	0xbc9da4f8	-0.019243702
45	0xbdb84880	-0.08998203
46	0xbe43a020	-0.19104052
47	0xbe2dedf0	-0.16985297
48	0x3de2b745	0.11070112
49	0x3dc64490	0.09681046
50	0x3d2577d1	0.04039747
51	0xbcbc6bf7	-0.0230007
52	0xbcdeab14	-0.027181186
53	0xbd4b4c0f	-0.049633082
54	0xbba3afe8	-0.004995335
55	0xbd27df64	-0.040984526
56	0x3c94919f	0.018135844
57	0x3dfbfc3f	0.123039715
58	0x3e35d3c5	0.17756565
59	0x3d8ba1c9	0.068179674
60	0x3dafa13a	0.085756734
61	0xbd87cfe3	-0.06631448
62	0xbea12223	-0.31471357
63	0xbe9e2905	-0.3089067
64	0x3e3006bc	0.17190069
65	0x3e158422	0.14601186
66	0x3d10f2e0	0.035387874
67	0x3c026670	0.007958993
68	0x3d8cbea1	0.06872297
69	0x3d90f4de	0.07077955
70	0x3de2c814	0.11073318
71	0x3d654ac2	0.055979498
72	0x3b7ae52d	0.0038283572
73	0x3d815365	0.06314734
74	0x3e04c25e	0.1296477
75	0x3e41a7c3	0.18911652
76	0x3e1cd3c9	0.15315165
77	0x3d9837fb	0.074325524
78	0xbe8e6f8e	-0.27819484
79	0xbeb23eef	-0.3481364
80	0x3e1edf6c	0.15514916
81	0x3dc17a45	0.09447149
82	0xbccda468	-0.02510281
83	0x3ccfc7ff	0.02536392
84	0xbd163a1c	-0.03667651
85	0x3d859c38	0.06523937
86	0x3d648abf	0.05579638
87	0x3d9cf706	0.076643035
88	0x3dba6161	0.09100605
89	0x3d98b6c5	0.074567355
90	0x3e7f45a8	0.24928916
91	0x3e4be148	0.19910157
92	0x3e1ebbe6	0.15501365
93	0x3d827aad	0.06371055
94	0xbe8d717c	-0.27625644
95	0xbea825d4	-0.3284136
96	0x3e14c36a	0.1452767
97	0x3e5be485	0.21473892
98	0xbb401e14	-0.0029314803
99	0x3d870a85	0.06593803
100	0x3d7f2a20	0.062296033
101	0x3d226d0b	0.039654773
102	0x3d598135	0.053101737
103	0x3bb5a855	0.0055437484
104	0xbe139a8d	-0.14414425
105	0xbd0eec6d	-0.034893442
106	0x3e56a537	0.20961462
107	0x3df51ab9	0.119679876
108	0x3e8e020b	0.27735934
109	0x3e09a047	0.13440047
110	0xbe3a5c17	-0.18199192
111	0xbe69d97c	-0.2283687
112	0x3dc262f8	0.09491533
113	0x3e3a7662	0.18209222
114	0x3dbeb48f	0.093117826
115	0x3db658fa	0.0890369
116	0x3dcb30e6	0.09921436
117	0x3db43d74	0.08800784
118	0xbccaf2e8	-0.02477403
119	0xbe7753d5	-0.24153073
120	0xbe9684d8	-0.29398227
121	0xbe1eeaba	-0.15519229
122	0x3d5f3435	0.054493148
123	0x3d6b1a01	0.057397846
124	0x3dc559b9	0.09636254
125	0x3e106293	0.14100103
126	0x3d8f0590	0.06983483
127	0xbcc5cf79	-0.024146782
128	0x3d8e0cf5	0.06936065
129	0xbc578f25	-0.013156687
130	0xbcc234d6	-0.023706835
131	0x3d60831e	0.054812543
132	0x3d8ab8ea	0.06773551
133	0xbcf8594b	-0.030316016
134	0xbe04d433	-0.12971573
135	0xbe9446c0	-0.28960228
136	0xbe65f9d6	-0.22458586
137	0xbd5df5e9	-0.054189596
138	0xbc2d914e	-0.010593725
139	0x3c560109	0.01306177
140	0x3d6dcd1e	0.058056943
141	0x3d12009e	0.03564512
142	0x3d3af336	0.0456421
143	0x3d3f3e2f	0.046690162
144	0xbda7ed43	-0.08199551
145	0xbe5f28cc	-0.21792907
146	0xbd42d324	-0.04756464
147	0x3dbce414	0.0922319
148	0x3dbe6114	0.0929586
149	0x3d0ac816	0.033882223
150	0xbe01a0bb	-0.1265897
151	0xbea95a77	-0.33076832
152	0xbe0d153d	-0.13777633
153	0xbc657769	-0.01400552
154	0x3d0dd453	0.034626316
155	0x3a936874	0.001124634
156	0x3d7ec229	0.062196884
157	0xbd45572c	-0.048178837
158	0xbd8dd437	-0.069252424
159	0x3c6f4a54	0.014605124
160	0x3db4504e	0.088043794
161	0xbea8e6ee	-0.32988685
162	0xbd8db7e9	-0.06919844
163	0xbcd9c544	-0.026583321
164	0x3c10399b	0.008802797
165	0x3df6f91b	0.12059232
166	0xbdd9e2fb	-0.10638996
167	0xbe024bc0	-0.12724209
168	0xbc7cae47	-0.01542241
169	0xbd3e7ebf	-0.046507593
170	0x3c5b5e8a	0.013389239
171	0xbdd6bead	-0.10485587
172	0xbd072450	-0.032993615
173	0xbd7bb58d	-0.061452437
174	0xbd101a97	-0.035181608
175	0x3df4a1a3	0.11944892
176	0x3df3d69a	0.119061664
177	0xbe877046	-0.26452845
178	0xbd70a488	-0.05875066
179	0xbdb5e365	-0.08881263
180	0x3c3701f4	0.011169899
181	0xbcd7c648	-0.026339665
182	0x3ccbfc6d	0.02490064
183	0x3c124685	0.008927946
184	0xbd5d2951	-0.05399448
185	0xbd5a3acf	-0.05327874
186	0xbdf2a5f8	-0.11848062
187	0xbdbfde94	-0.09368625
188	0xbdf32e1a	-0.118740276
189	0xbe48b429	-0.19599976
190	0xbc61d6bb	-0.013784106
191	0x3d769338	0.060198992
192	0x3c541275	0.012943854
193	0xbe18a448	-0.14906418
194	0xbcb67fff	-0.02227783
195	0x3d0bdd1d	0.034146417
196	0x3d4b99d4	0.04970725
197	0x3dc9b0ca	0.09848173
198	0x3df476a7	0.11936694
199	0x3d6ae474	0.057346776
200	0x3ce8d42d	0.028421486
201	0xbdcab495	-0.098977245
202	0xbd918829	-0.071060486
203	0xbdbdd76a	-0.092696026
204	0xbdb104d6	-0.086435005
205	0xbdb163f3	-0.08661642
206	0x3d64e2be	0.0558803
207	0x3d28620f	0.04110914
208	0xbd8281b3	-0.063723944
209	0xbdeae94b	-0.11470278
210	0x3c7212a5	0.014774953
211	0x3e3eb63e	0.18624207
212	0x3e2c7494	0.16841346
213	0x3dbc2a53	0.0918776
214	0x3dbc968d	0.09208403
215	0x3d4453a1	0.047931317
216	0x3d9d26ed	0.0767344
217	0x3daa6b75	0.08321277
218	0xbda43a28	-0.08018905
219	0xbe1346d4	-0.14382488
220	0xbdfb8a42	-0.1228223
221	0xbd1b741f	-0.03795254
222	0x3d59a74b	0.05313806
223	0xbb9d2155	-0.0047952333
224	0xbc70d33f	-0.0146988025
225	0x3d4dfd6c	0.05029051
226	0x3dfd4d5d	0.123682715
227	0x3db6cc9f	0.08925747
228	0xbc241416	-0.0100145545
229	0x3cdde44b	0.027086398
230	0x3cbc300d	0.022972131
231	0x3d53938d	0.051654387
232	0xbd325595	-0.04353865
233	0x3d92f05d	0.07174752
234	0x3cfeebfd	0.031118387
235	0xbd1d8982	-0.038461216
236	0xbd169ba7	-0.036769535
237	0xbd4a66bc	-0.04941438
238	0xba7516c7	-0.00093494024
239	0x3d0fe41a	0.035129644
240	0x3c94bb8c	0.018155836
241	0x3dcf0f9f	0.10110401
242	0xbd656e3c	-0.05601333
243	0xbc0344bb	-0.008011992
244	0x3df8a113	0.121400975
245	0x3d4ff9ec	0.050775453
246	0x3c868bb9	0.016424047
247	0x3df80f3a	0.12112279
248	0x3d7a7102	0.06114293
249	0x3dd0492b	0.10170206
250	0x3d9f0e7f	0.07766437
251	0x3d1d6103	0.038422596
252	0x3dde7aa7	0.10863238
253	0x3ca522a3	0.020158118
254	0xba48fdd3	-0.0007667217
255	0x3ca1e4ac	0.01976236

fc2.weight f4 [64, 64]
0	0x3e063ad4	0.13108379
1	0x3dabfefb	0.08398243
2	0x3bce5cce	0.0062976843
3	0x3d276495	0.040867407
4	0xbd516b31	-0.051127616
5	0xbd8dd4b9	-0.06925339
6	0xbd90eafc	-0.0707607
7	0x3e4ace98	0.19805372
8	0x3d1bc9c8	0.03803423
9	0xbddcbe67	-0.10778504
10	0x3c32807a	0.010894889
11	0x3d76d583	0.060262214
12	0xbcff0c80	-0.03113389
13	0x3e304013	0.17211942
14	0x3d06357c	0.03276585
15	0x3dba55f1	0.09098423
16	0xbe4f930d	-0.20270939
17	0x3e0f6937	0.1400498
18	0xbdc1e49e	-0.094674334
19	0x3cec33e3	0.028833335
20	0xbde2ce60	-0.11074519
21	0xbca020a7	-0.01954682
22	0x3d067b35	0.032832343
23	0x3ca163de	0.01970094
24	0x3ce9984c	0.028515004
25	0xbeb78833	-0.358461
26	0x3d1ffcd3	0.03905947
27	0x3ceaa9ed	0.02864548
28	0x3d575ee3	0.052580725
29	0xbdd22897	-0.10261648
30	0xbdcb3d3a	-0.099237874
31	0x3e485e43	0.19567208
32	0xbd8921b0	-0.066958785
33	0xbd9ac71a	-0.07557507
34	0xbd6fe694	-0.058569506
35	0x3e37b306	0.17939386
36	0xbe562a1d	-0.20914502
37	0x3d91ff44	0.07128766
38	0x3e42db50	0.19028974
39	0x3d33af7e	0.043868534
40	0x3e514a45	0.20438488
41	0xbd73fdfa	-0.059568383
42	0xbdff7331	-0.12473143
43	0xbe1e72d0	-0.15473485
44	0x3e3c9c3b	0.18418972
45	0x3e3f1c9a	0.18663254
46	0x3c08c45a	0.008347595
47	0xbdc44f5c	-0.09585449
48	0x3e99d709	0.3004687
49	0x3dfb5663	0.12272336
50	0x3d777200	0.060411453
51	0x3c884bb8	0.016637668
52	0x3d77c7e4	0.060493365
53	0xbcd7e745	-0.026355395
54	0xbca7c602	-0.02048016
55	0x3e9e9dbc	0.30979717
56	0x3db11bb2	0.086478606
57	0xbe0ea887	-0.13931476
58	0x3d6b01dc	0.05737482
59	0x3cee55e5	0.029093692
60	0x3cf3fa94	0.02978257
61	0xbcd84673	-0.02640078
62	0x3e6eade8	0.23308527
63	0x3e885eba	0.2663477
64	0x3e03aba1	0.1285844
65	0x3e740dc9	0.23833384
66	0x3e065873	0.13119678
67	0x3dfb6008	0.12274176
68	0x3e3e92b2	0.18610647
69	0x3d980e02	0.07424547
70	0xbd5cb275	-0.053881127
71	0xbabde8d4	-0.0014488944
72	0xbd6bd0ad	-0.057572056
73	0xbd9ee2b2	-0.077580824
74	0x3dac97e0	0.08427405
75	0x3dbeb5dc	0.09312031
76	0xbe48ee80	-0.1962223
77	0xbe632646	-0.22182569
78	0x3d217f42	0.039428003
79	0x3daa34ad	0.08310828
80	0x38ece7f2	0.0001129656
81	0xbe2dd864	-0.16977078
82	0x3e6987a7	0.22805654
83	0x3da4869f	0.080334894
84	0x3ca8a7f2	0.020587895
85	0x3e457f61	0.19286872
86	0x3de45af6	0.11150162
87	0xbd359133	-0.044327926
88	0xbce2d2c3	-0.02768839
89	0x3d9ac940	0.07557917
90	0x3e4c1ddc	0.19933265
91	0xbd049dcc	-0.03237705
92	0xbcb9a2e6	-0.022660684
93	0x3e45a3cf	0.1930077
94	0x3d9cf9a4	0.07664803
95	0xbd18544c	-0.037189767
96	0x3e1e3235	0.1544884
97	0x3dabb43f	0.083839886
98	0x3c819c7c	0.015821688
99	0x3d8ed3ac	0.06973967
100	0x3e57b617	0.21065556
101	0xbdbf9f19	-0.09356517
102	0xbd1d9cde	-0.03847968
103	0xbe4733a4	-0.19453293
104	0x3e25c78b	0.16189401
105	0xbcc24464	-0.023714252
106	0xbd49859d	-0.04919969
107	0x3d6a5577	0.057210412
108	0xbe7c8fe7	-0.2466427
109	0xbdc3558b	-0.095378004
110	0x3d81a7c6	0.06330828
111	0xbdd17491	-0.102273114
112	0xbe666faa	-0.22503534
113	0xbe73d576	-0.23811898
114	0x3e09c846	0.13455305
115	0x3d46c0ce	0.048523717
116	0x3e03c4eb	0.12868087
117	0xbc622fe7	-0.013805366
118	0x3dad0c32	0.08449592
119	0xbe9ab574	-0.30216563
120	0x3e72c1d4	0.23706752
121	0x3e2d44e4	0.16920811
122	0xbc0529b0	-0.008127615
123	0xbd201b7f	-0.039088722
124	0x3e231c4d	0.15928765
125	0xbe3dec1d	-0.18547101
126	0xbd010ccc	-0.031506345
127	0x3bf9e325	0.0076259547
128	0xbd9aa037	-0.0755009
129	0xbe5d3ea7	-0.21605931
130	0xbca316f7	-0.019908411
131	0x3db96286	0.09051995
132	0x3ba50271	0.0050356914
133	0x3db7c40d	0.089729406
134	0xbcae86bc	-0.02130448
135	0xbe290702	-0.1650658
136	0xbd91dc11	-0.071220525
137	0x3e57eb97	0.21085964
138	0x3ccd76e9	0.025081115
139	0x3e2a1b5d	0.16612001
140	0x3de21283	0.11038687
141	0x3e3d53f8	0.18489063
142	0x3d7b4258	0.061342567
143	0x3c4b9d25	0.012427603
144	0xbde7e7b7	-0.11323493
145	0x3db96769	0.09052927
146	0x3ce06a9a	0.027394582
147	0x3daa0640	0.08301973
148	0xbd62bee8	-0.055357844
149	0x3d80972c	0.06278834
150	0xbe38499e	-0.17996833
151	0xbbd47e1e	-0.006484761
152	0x3d5f0b8d	0.054454375
153	0x3e30d7c4	0.17269808
154	0xbdde1125	-0.10843114
155	0xbd020014	-0.031738356
156	0xbcf968c3	-0.030445462
157	0xbd06c107	-0.03289893
158	0x3e7c53b6	0.24641308
159	0xbd882d79	-0.06649298
160	0x3c899ce0	0.016798437
161	0xbdb1e6b4	-0.08686581
162	0xbc9ea3df	-0.01936525
163	0xbad87a9a	-0.001651603
164	0xbdc4a42b	-0.09601625
165	0xbde567a1	-0.11201406
166	0xbcb54880	-0.022129297
167	0xbc9bee1b	-0.019034436
168	0x3d0ac0d4	0.0338753
169	0x3d71a8e2	0.05899895
170	0x3d438b08	0.047740012
171	0x3ca21066	0.01978321
172	0x3db0279c	0.08601305
173	0xbbe26fa7	-0.0069102827
174	0xbe032816	-0.1280826
175	0xbce4e8aa	-0.027942974
176	0x3e312cc1	0.17302229
177	0x3e6f1d97	0.23351131
178	0x3d613715	0.05498417
179	0xbdc0a876	-0.094071314
180	0xbd1b81b5	-0.037965495
181	0x3c455308	0.012043722
182	0x3e48fa3d	0.19626708
183	0x3e5cf58b	0.21578042
184	0xbe0b325b	-0.13593428
185	0x3dd43946	0.103624865
186	0xbd2fb477	-0.042896714
187	0xbc5d467e	-0.013505576
188	0xbe6d6cda	-0.23186055
189	0x3e6caddc	0.23113197
190	0x3b7fe8b4	0.0039048614
191	0x3dfe67e5	0.1242216
192	0xbc031e5e	-0.008002846
193	0xbca7ca4c	-0.020482205
194	0xbe164d33	-0.14677887
195	0xbc025974	-0.007955898
196	0xbda73184	-0.08163741
197	0xbe13184e	-0.1436474
198	0xbdc08163	-0.093996786
199	0xbd1c7ce5	-0.038205046
200	0x3d339f1e	0.043852918
201	0xbdb16499	-0.086617656
202	0xbdb1304c	-0.0865179
203	0x3d2ed742	0.042685755
204	0xbdee26eb	-0.11628517
205	0x3ce40570	0.027834624
206	0x3d6397e4	0.055564776
207	0x3cbc5210	0.02298835
208	0x3d384c05	0.044994373
209	0x3dafb245	0.08578924
210	0xbdf8f6d6	-0.12156455
211	0xbd354544	-0.04425551
212	0xbc555640	-0.013021052
213	0xbcd7d605	-0.02634717
214	0xbda6e977	-0.08149999
215	0xbe044061	-0.12915184
216	0xbd2ae3b0	-0.041721046
217	0x3d8d3245	0.06894354
218	0x3d1233a6	0.035693787
219	0x3cd28b83	0.02570129
220	0x3da2fba7	0.07958155
221	0xbdf70324	-0.12061146
222	0xbbe4d85e	-0.006983801
223	0xbdad4d35	-0.08461992
224	0x3d02120e	0.0317555
225	0xbdca99e8	-0.098926365
226	0xbd3ea4cf	-0.046543892
227	0xbbf56ec0	-0.007490009
228	0xbdbdd802	-0.09269716
229	0xbd86f6ac	-0.06590018
230	0xbe118ada	-0.14213124
231	0xbdc0d54d	-0.09415684
232	0x3cd8f1fc	0.026482575
233	0x3d4f3158	0.050584167
234	0x3dfa571d	0.12223647
235	0xbd6eb78f	-0.058280524
236	0xbb9a9bef	-0.0047182958
237	0x3d57fd34	0.052731708
238	0xbc7d6eb6	-0.01546829
239	0xbdb29d29	-0.08721382
240	0xbcae532d	-0.021279896
241	0xbd874811	-0.066055425
242	0xbd0101a4	-0.031495705
243	0xbd84722f	-0.06467091
244	0x3daf7355	0.0856692
245	0xbd9cf1b9	-0.076632924
246	0xbd698f28	-0.05702129
247	0xbda8123a	-0.082066014
248	0xbdf886da	-0.12135096
249	0xbd194625	-0.03742041
250	0x3c940ddf	0.01807302
251	0xbd89e4ab	-0.06733068
252	0x3dd5239e	0.10407184
253	0x3da42d0c	0.080164045
254	0x3d4f4708	0.05060485
255	0x3cb62638	0.022235021

fc3.weight f4 [64, 64]
0	0xbe06b029	-0.13153137
1	0x3dd4a32b	0.10382684
2	0x3db7b4a0	0.08969998
3	0xbd420d34	-0.047375873
4	0xbd724f01	-0.059157375
5	0xbd2125f5	-0.03934284
6	0xbd725568	-0.05916348
7	0x3d12fd45	0.035886068
8	0x3dfc5b69	0.123221226
9	0x3c2ce4c7	0.010552592
10	0x3dcf95b1	0.10135973
11	0x3bebdca3	0.007197933
12	0xbde13f43	-0.10998394
13	0x3dbe41c0	0.092898846
14	0xbe072c85	-0.13200577
15	0x3ce5854f	0.028017668
16	0xbe0d09e3	-0.13773303
17	0xbc6a158f	-0.0142873665
18	0xbdd73c6a	-0.1050957
19	0xbd0b7fea	-0.034057535
20	0xbdbb1cfe	-0.09136389
21	0xbd77b33f	-0.060473677
22	0xbc70b6c3	-0.014692011
23	0x3d3a3da8	0.045468956
24	0x3ca45f43	0.020064956
25	0xbd74a6d8	-0.059729427
26	0xbd8abdf9	-0.06774516
27	0x3c7ce07a	0.015434379
28	0xbc940570	-0.018068999
29	0xbd78ecb4	-0.060772613
30	0x3b9f8234	0.0048678163
31	0xbdcddd24	-0.10051945
32	0x3b25d952	0.0025306535
33	0xbe063fd0	-0.1311028
34	0x3cc2fa9c	0.02380114
35	0x3db3c4c6	0.08777766
36	0xbd2420cc	-0.04007034
37	0x3df3ad90	0.11898339
38	0x3cd7ffdb	0.026367119
39	0xbbe0605d	-0.006847425
40	0x3d26b0b4	0.04069586
41	0x3d85ab10	0.06526768
42	0x3cfd1b13	0.030896699
43	0xbca2c340	-0.019868493
44	0xbddd04f0	-0.107919574
45	0xbdd65039	-0.1046452
46	0x3db377b6	0.087630674
47	0x3d5c988e	0.053856425
48	0xbd23415c	-0.039857253
49	0xbb8d6820	-0.004315391
50	0xbde30c60	-0.11086345
51	0x3bc6d039	0.0060673025
52	0x3c8a7c3e	0.016904946
53	0xbde9ab03	-0.11409571
54	0xb985c26d	-0.00025512595
55	0xbb988c16	-0.0046553714
56	0xbdef595e	-0.11686967
57	0x3da71d91	0.08159936
58	0xbdb8e0af	-0.0902723
59	0x3d0edc5b	0.034878116
60	0xbe082721	-0.13296176
61	0x3c516b50	0.012781933
62	0xbd07d4ff	-0.033162113
63	0xbdf3c17e	-0.1190214
64	0x3e41c9b8	0.18924606
65	0xbbbe0172	-0.005798512
66	0xbe1e6112	-0.15466717
67	0x3dbb9670	0.09159553
68	0x3de4ad9b	0.11165925
69	0xbe467d1b	-0.19383661
70	0xbdebf711	-0.115217336
71	0x3e24846a	0.16066137
72	0xbc602c43	-0.013682428
73	0xbcea4b02	-0.02860022
74	0x3de083ea	0.109626606
75	0x3bbb7cc3	0.00572166
76	0xbdf7d492	-0.121010914
77	0xbcdfec53	-0.027334368
78	0xbdb33585	-0.087504424
79	0x3e54242e	0.20716926
80	0x3e815a79	0.25264338
81	0xbe6805d5	-0.22658475
82	0xbe69bfed	-0.2282712
83	0xbe83f7f2	-0.25775105
84	0xbe0f89bd	-0.14017387
85	0xbd46e0b8	-0.048554152
86	0xbe0cf75c	-0.13766235
87	0x3e190550	0.14943433
88	0xbe9ac894	-0.30231154
89	0xbc5ca8ec	-0.0134680085
90	0x3d1661ea	0.036714472
91	0x3de6c406	0.11267857
92	0xbd97d96b	-0.07414516
93	0x3d9bec2f	0.07613408
94	0xbe01f800	-0.1269226
95	0xbdf7234d	-0.1206728
96	0xbd32b92f	-0.043633636
97	0x3e4b773f	0.19869708
98	0x3d620c47	0.05518749
99	0x3dda4d76	0.10659306
100	0xbdee8a78	-0.116475046
101	0x3e9a5f29	0.30150726
102	0x3e24af69	0.16082539
103	0x3dbe5e59	0.09295339
104	0xbbc4220a	-0.005985503
105	0xbdd63425	-0.104591645
106	0xbd3b4089	-0.045715842
107	0x3e0875ea	0.1332623
108	0xbe2faca1	-0.17155696
109	0x3e350e93	0.17681341
110	0xbc0f01e5	-0.008728479
111	0x3e1c1baa	0.15244928
112	0x3c24dc30	0.010062262
113	0x3e34b140	0.1764574
114	0xbdf03dc0	-0.11730528
115	0xbd24e31a	-0.040255643
116	0xbcf82c52	-0.030294571
117	0x3e1eaac5	0.15494831
118	0xbe22e2dc	-0.15906852
119	0xbe13f336	-0.14448246
120	0x3d8b464b	0.06800517
121	0x3d259ce7	0.040432837
122	0xbe460999	-0.19339599
123	0xbc4e312f	-0.0125849685
124	0xbd52889b	-0.05139981
125	0xbc322a7c	-0.010874387
126	0xbcbbd3e4	-0.022928186
127	0xbd876e29	-0.06612808
128	0x3ddcfffe	0.10791014
129	0x3d4f9782	0.0506816
130	0x3e8b6bfb	0.2723082
131	0xbdcccf7d	-0.10000513
132	0xbd6db5c2	-0.058034666
133	0x3e906b85	0.2820703
134	0x3d4ebbf9	0.050472233
135	0x3e038b20	0.1284604
136	0x3df6aadf	0.1204431
137	0x3e5c0655	0.2148679
138	0xbe0f4323	-0.13990454
139	0x3eb15780	0.3463707
140	0x3bdf2d34	0.0068108086
141	0xbe069310	-0.13142037
142	0x3d9e1dbe	0.077205166
143	0xbe277b79	-0.16355695
144	0xbd2bb829	-0.041923676
145	0x3eab21c5	0.33424202
146	0x3e01e00c	0.12683123
147	0x3e23cec4	0.15996844
148	0x3c551d3d	0.013007459
149	0x3e32ed2b	0.17473285
150	0x3d310202	0.043214805
151	0xbdb44fba	-0.08804269
152	0x3dd6ff78	0.104979455
153	0x3e2a2354	0.16615039
154	0x3c2590c4	0.010105316
155	0x3ccd5ebe	0.02506959
156	0x3c515b77	0.012778155
157	0x3e13dfb4	0.14440805
158	0x3ea923f7	0.33035251
159	0x3e34e0fd	0.17663951
160	0x3d24d82b	0.040245216
161	0xbcecdf42	-0.028915051
162	0x3e41bb8d	0.18919201
163	0xbddd9766	-0.108198926
164	0x3e1c0c17	0.15238987
165	0x3db682e3	0.089116834
166	0xbe151a78	-0.14560878
167	0xbdc341a1	-0.09534002
168	0x3e0fc4a9	0.14039864
169	0x3dce4118	0.100710094
170	0x3db000da	0.085939124
171	0xbcccfbfb	-0.025022497
172	0x3dc0f0ee	0.09420954
173	0x3c5fd81f	0.013662367
174	0x3d31c316	0.04339894
175	0x3c4cc1bf	0.012497365
176	0x3d93a152	0.07208504
177	0xbe157868	-0.14596713
178	0x3e17001a	0.14746132
179	0x3df2e063	0.118592046
180	0xbc218007	-0.009857184
181	0xbd0e1d62	-0.03469599
182	0x3df0c8ec	0.11757073
183	0x3e3bb80c	0.18331927
184	0xbd22e1c8	-0.039766103
185	0xbe1758b4	-0.14779931
186	0x3dee5fe2	0.11639382
187	0x3ca01651	0.019541891
188	0x3d86d2e1	0.06583191
189	0x3dbd98c8	0.09257656
190	0x3aea06e4	0.0017854837
191	0x3c5a0f4a	0.013309309
192	0x3d66c2ad	0.056338
193	0x3e5eb311	0.21747996
194	0xbdbd8ac1	-0.09254981
195	0xbb2ffffb	-0.0026855457
196	0xbd167925	-0.036736626
197	0x3d804525	0.06263188
198	0x3e882a41	0.26594737
199	0xbe19c172	-0.150152
200	0x3b1142a4	0.0022164965
201	0x3db18113	0.08667197
202	0xbde3cdab	-0.111232124
203	0x3db73ab1	0.08946741
204	0x3db11d91	0.086482175
205	0xbd07c83e	-0.03314995
206	0x3e62c675	0.22146018
207	0x3ddf5b50	0.10906088
208	0xbe7465ef	-0.2386701
209	0x3c8d52a2	0.017251316
210	0x3e6442b2	0.22291067
211	0xbbca5d59	-0.0061756787
212	0xbc11da25	-0.008902107
213	0x3e0cd1b4	0.1375187
214	0x3d895f9b	0.067076884
215	0x3d6a7dab	0.057248753
216	0x3e66a30f	0.2252314
217	0x3cd672e0	0.026177824
218	0x3d6bda15	0.057581026
219	0xbe28981e	-0.16464278
220	0x3d5ebf26	0.054381512
221	0xbe5ebb4d	-0.21751137
222	0xbd629829	-0.055320892
223	0x3e280c3d	0.16410919
224	0xbd37b87d	-0.044853676
225	0xbcd486b2	-0.025943134
226	0xbe14cc54	-0.1453107
227	0x3ceb007e	0.028686758
228	0x3e3bc0ca	0.18335262
229	0xbdd4b592	-0.10386194
230	0xbe12ee6c	-0.14348763
231	0xbd939dfb	-0.07207867
232	0x3c262366	0.010140276
233	0x3e05bc63	0.13060145
234	0xbd86c15d	-0.0657985
235	0xbd85fbaf	-0.065421455
236	0xbceb5cf4	-0.028730847
237	0x3d017fd6	0.031616054
238	0x3c439799	0.011937999
239	0x3cf39103	0.029732233
240	0x3e58b65a	0.21163312
241	0xbe253554	-0.16133624
242	0x3d3b08cb	0.045662683
243	0x3d4a4bb6	0.04938861
244	0x3dfeeb9d	0.124472834
245	0xbe04af06	-0.12957391
246	0x3de30a22	0.11085917
247	0x3e3d0f7e	0.18462941
248	0x3cfbe146	0.030747067
249	0xbca8ad86	-0.020590555
250	0x3e06eac4	0.13175493
251	0x3e3737c4	0.17892367
252	0xbdd41176	-0.10354893
253	0x3e9c84a2	0.3056994
254	0x3e50a257	0.20374428
255	0x3e23f889	0.16012777

fc_last.weight f4 [10, 64]
0	0xbcf2a271	-0.029618474
1	0xbd8ad2c7	-0.06778484
2	0x3dfa5298	0.12222785
3	0x3e3c314a	0.18378177
4	0x3d14e8ee	0.03635495
5	0x3c837cc0	0.016050696
6	0xbe48dbdd	-0.19615121
7	0xbe6e397f	-0.2326412
8	0xbdd7272f	-0.105055206
9	0x3ddbfeec	0.10741982
10	0x3e2480d4	0.16064769
11	0xbdd5327c	-0.1041002
12	0x3da3eda7	0.08004313
13	0xbe5cb03f	-0.21551608
14	0x3c431765	0.011907433
15	0xbd7d8d13	-0.061902117
16	0xbdc08be9	-0.09401686
17	0xbd661b67	-0.056178477
18	0x3dc51468	0.09623033
19	0x3e251e0d	0.16124745
20	0xbe669848	-0.22519028
21	0x3cba86b8	0.022769317
22	0x3b87b67f	0.0041416283
23	0xbcb06ffa	-0.02153777
24	0xbda190e0	-0.07888961
25	0xbe4ffaca	-0.20310512
26	0x3e20456f	0.15651487
27	0x3d95bb1b	0.07311078
28	0xbda58b27	-0.08083182
29	0x3b65081d	0.0034947463
30	0xbc2e90af	-0.010654612
31	0xbe303545	-0.1720782
32	0xbeae3a6f	-0.34028956
33	0x3d551025	0.05201735
34	0xbcd467bb	-0.025928369
35	0xbdbed9be	-0.09318875
36	0xbe2c06a0	-0.16799402
37	0xbbbbc672	-0.0057304436
38	0xbcc95d30	-0.024580568
39	0x3e31723d	0.17328735
40	0x3d9ea9b5	0.07747213
41	0x3e82bee6	0.2553627
42	0x3e33f6a5	0.17574556
43	0xbd74ae98	-0.059736818
44	0xbe9fc673	-0.31206092
45	0xbdf3c7b3	-0.11903324
46	0xbe93b893	-0.28851756
47	0x3d3b0550	0.045659363
48	0x3dc11440	0.094276905
49	0xbe33df62	-0.17565683
50	0x3e2ec737	0.17068182
51	0xbd69fbdf	-0.05712497
52	0xbe321e95	-0.17394479
53	0xbe19dd51	-0.15025832
54	0x3e0b04a7	0.13575993
55	0xbd1bade8	-0.038007647
56	0xbe0832ad	-0.13300581
57	0x3e568a44	0.20951182
58	0xbda7ba4d	-0.08189831
59	0xbe7ce904	-0.24698263
60	0xbd8a0ce6	-0.067407414
61	0x3e3c1c2e	0.18370125
62	0xbd2682e6	-0.04065218
63	0xbd7a06d3	-0.061041664
64	0xbd3558a5	-0.04427399
65	0xbce99a73	-0.02851603
66	0x3defe1ec	0.11713013
67	0xbe867652	-0.26262146
68	0xbda9bdf1	-0.082881816
69	0xbe1c42a4	-0.15259796
70	0xbe07172d	-0.13192435
71	0x3e2b723b	0.16742794
72	0xbc6617aa	-0.014043728
73	0x3d39a34d	0.04532175
74	0x3cdbd055	0.026832739
75	0x3cccbfe0	0.024993837
76	0xbb466a77	-0.003027586
77	0xbe599567	-0.21248399
78	0xbe12fea2	-0.14354947
79	0xbdb07db6	-0.086177275
80	0xbe2c2781	-0.16811945
81	0xbe2f704b	-0.1713268
82	0xbc9bda8a	-0.019025106
83	0xbe6baf22	-0.23016027
84	0x3e18b702	0.14913562
85	0xbe88c783	-0.26714715
86	0xbdcbe122	-0.0995505
87	0xbd0c8825	-0.034309525
88	0x3e7e7019	0.2484745
89	0x3dc60bd2	0.09670223
90	0xbe5ec1ef	-0.21753667
91	0x3e8416a9	0.25798538
92	0xbca1145a	-0.019663025
93	0xbe80773b	-0.25090966
94	0xbd65dc71	-0.056118432
95	0x3c2423e1	0.01001832
96	0x3e6910c8	0.22760308
97	0xbe0d4811	-0.13797022
98	0x3e057367	0.13032304
99	0xbdc9b294	-0.09848514
100	0x3e42b5c3	0.19014649
101	0x3e809584	0.2511407
102	0xbea8081a	-0.3281868
103	0xbc105c2f	-0.008811041
104	0x3e82a8cd	0.2551941
105	0xbe14443c	-0.14479154
106	0x3d953018	0.07284564
107	0xbea666db	-0.32500347
108	0x3e29a047	0.16565047
109	0xbe37ac8a	-0.17936912
110	0x3dbadb7c	0.091238946
111	0xbe3a5a81	-0.18198587
112	0x3d3eda60	0.046594977
113	0x3d28bc83	0.041195404
114	0xbcffe78b	-0.031238338
115	0xbda5bc5f	-0.080925696
116	0x3b8c4ad6	0.004281382
117	0x3e829316	0.25502843
118	0xbe7a8e5f	-0.24468373
119	0xbdc13c30	-0.09435308
120	0x3e4975a8	0.19673789
121	0xbe384fef	-0.17999242
122	0xbdc09b33	-0.09404602
123	0x3e1e6100	0.1546669
124	0xbe16e306	-0.1473504
125	0xbe8680df	-0.26270196
126	0x3e2dc180	0.16968346
127	0xbdec0540	-0.11524439
128	0x3aefe299	0.0018301784
129	0xbdfc57ce	-0.12321435
130	0x3de13936	0.1099724
131	0x3dca2edf	0.09872221
132	0x3c706d94	0.014674563
133	0x3e19078d	0.14944287
134	0x3d990fd8	0.07473725
135	0x3d74fd26	0.059811734
136	0x3ab8d1a3	0.0014100563
137	0xbe828285	-0.25490203
138	0xbc072371	-0.008248196
139	0xbe4a9eb8	-0.19787109
140	0x3e03a60c	0.1285631
141	0xbbe905c8	-0.007111285
142	0x3dd65af3	0.10466566
143	0xbdc16ff4	-0.094451815
144	0xbc982984	-0.018574484
145	0x3dfbd16c	0.122958034
146	0xbc411cdf	-0.011786669
147	0xbde6855a	-0.112559035
148	0x3e8e70de	0.27820486
149	0x3c6ac298	0.014328621
150	0xbdb1470f	-0.086561315
151	0x3c8f6b01	0.017507078
152	0xbe3ab008	-0.18231213
153	0x3dca4569	0.0987652
154	0x3c084685	0.008317594
155	0x3d8540bf	0.0650649
156	0x3e643f7d	0.22289844
157	0x3e64402c	0.22290105
158	0xbccf7f06	-0.025329124
159	0xbbfffa5d	-0.007811828
160	0xbe9d6fd8	-0.30749393
161	0xbd911a94	-0.070851475
162	0x3e3d5ddb	0.18492834
163	0x3dde6364	0.10858801
164	0x3e38c2cd	0.1804306
165	0x3e50523d	0.20343871
166	0x3d965e84	0.07342246
167	0xbe283504	-0.16426474
168	0x3cf13321	0.029443325
169	0x3dba1694	0.09086338
170	0x3c8a0bf0	0.016851395
171	0xbe873e1d	-0.26414576
172	0xbe8719b0	-0.26386786
173	0x3d25c3e0	0.040470004
174	0xbc840400	-0.016115189
175	0xbdfb4c14	-0.1227037
176	0xbcb76f64	-0.022391982
177	0xbde88d82	-0.113551155
178	0x3e4ac517	0.19801746
179	0xbcd7f940	-0.026363969
180	0xbe936789	-0.2878993
181	0xbdf4e0f4	-0.11956969
182	0xbe441572	-0.19148806
183	0x3d99614a	0.074892595
184	0x3e103a0a	0.1408464
185	0xbd7ef568	-0.062245756
186	0xbeaecc34	-0.3414017
187	0x3d8be04c	0.068298906
188	0x3e1d936f	0.15388273
189	0xbe70b0dd	-0.23504968
190	0xbe2e3c51	-0.17015196
191	0x3e5815e3	0.21102099
192	0xbdd3bdf5	-0.10338966
193	0x3e9f80bc	0.31152904
194	0xbe0e740c	-0.13911456
195	0xbdec778d	-0.1154624
196	0x3e599de2	0.21251634
197	0xbd9d6255	-0.07684771
198	0x3e2bd2f6	0.16779694
199	0x3e1fe726	0.1561552
200	0xbd0916ec	-0.033469126
201	0xbe6b387b	-0.22970764
202	0xbd29fe9c	-0.04150258
203	0x3e0b28f1	0.13589837
204	0x3dfdfcd7	0.12401741
205	0x3e0fb205	0.14032753
206	0x3bed9f45	0.0072516524
207	0xbe13647c	-0.143938
208	0x3dbf5322	0.09342028
209	0x3d1dc107	0.038514163
210	0xbdebd92c	-0.115160316
211	0x3d6ce724	0.05783762
212	0x3d228c39	0.039684508
213	0x3e4b9c36	0.19883808
214	0xbd422767	-0.04740086
215	0xbdff9732	-0.1248001
216	0x3d994b4d	0.074850656
217	0xbd9c472c	-0.076307625
218	0x3e493fb5	0.19653209
219	0x3e353391	0.17695452
220	0x3e2cbf6a	0.16869894
221	0xbe677a44	-0.22605234
222	0xbdccee28	-0.10006362
223	0xbdd6af89	-0.104826994
224	0x3e19b9d8	0.150123
225	0x3e15e7bd	0.14639182
226	0x3da15a97	0.07878607
227	0xbe6c3a71	-0.23069169
228	0xbd23ca8b	-0.039988082
229	0xbde0f73c	-0.10984656
230	0xbe14dc57	-0.14537178
231	0xbe5f6dfd	-0.21819301
232	0xbe2a18b4	-0.16610986
233	0xbdfacc80	-0.122460365
234	0x3d2ef4ae	0.042713813
235	0x3e523825	0.2052923
236	0x3d4924d2	0.04910738
237	0x3e333684	0.17501265
238	0xbe12ef62	-0.1434913
239	0xbdb5d4a5	-0.08878449
240	0x3dbf67c7	0.09345966
241	0x3deb168b	0.11478909
242	0x3e161675	0.14657004
243	0xbe5ccee8	-0.21563303
244	0xbe225927	-0.15854321
245	0x3d503c9e	0.05083906
246	0xbe05373e	-0.13009354
247	0xbd40a3f8	-0.047031373
248	0x3c5b4e70	0.0133854
249	0xbd8e0bc9	-0.069358416
250	0x3ddea3c6	0.10871081
251	0xbd78a05b	-0.060699802
252	0x3d6355de	0.05550181
253	0xbd9da22b	-0.07696947
254	0xbdc3b485	-0.09555916
255	0xbe6e1db5	-0.2325352
