sw/baremetal/mlp/model_w2a8_64-64-64-10.pth (torch, 125161 bytes, 4 tensors)

fc1.weight f4 [64, 256]
000000 a0 0f 52 3c 25 f0 5b 3d 6e 2e 51 3e 24 fc 46 3e
       0.012821108 0.053695817 0.20427868 0.19432122
000010 8c 0b 39 3e dd 4a 4b 3e 7e a5 5c 3e d2 e3 7a 3e
       0.18070811 0.19852777 0.21547505 0.24500969
000020 29 f1 df bc 96 df 82 bd f9 5b a0 bd 9c 7d a7 3d
       -0.027336674 -0.06390302 -0.078300424 0.08178255
000030 46 54 56 3e 2f fc 88 bd 4d ef 75 be 90 12 92 3c
       0.20930585 -0.06688725 -0.24017067 0.017831117
000040 e0 2d e2 bd d7 49 2e 3e 38 4c 81 3e 67 9a 48 3e
       -0.11043906 0.17020355 0.25253463 0.1959015
000050 83 54 24 3e ca 16 1b 3d d7 17 30 3c 51 24 26 3d
       0.16047864 0.03786353 0.010747871 0.040561978
000060 50 19 8e 3d 49 47 12 be 8a 08 48 be cc ab 4c 3c
       0.06938422 -0.14285006 -0.19534507 0.012492131
000070 d4 c5 72 3e d2 2f 59 3e 98 3d 8a be 9a 73 2a be
       0.23708278 0.21209648 -0.27000117 -0.16645661
000080 f2 88 e3 bd e1 df 08 3e 9a 24 21 3e 66 8a 4a 3e
       -0.111101046 0.13366653 0.15736619 0.19779357
000090 18 46 27 3e 26 85 a9 bd 54 ce 9e bd 38 6d a0 bd
       0.16335332 -0.08277349 -0.07754198 -0.07833332
0000a0 cf fc db bd e4 8d 15 be 75 b7 8f bd 7f 0e 02 3e
       -0.10741579 -0.14604908 -0.070174135 0.12700842
0000b0 9d 81 20 3e 77 70 31 3e a6 9a 43 be 1a 44 a6 bc
       0.15674444 0.17328058 -0.19101962 -0.020296145
0000c0 af a1 03 3e 41 ea 8a 3d b9 31 69 3e fd db 6a 3e
       0.12854646 0.06782962 0.22772874 0.22935481
0000d0 05 9c 35 3e 88 31 15 3d c0 2b 9f bb c6 c6 05 bd
       0.17735298 0.03642419 -0.0048575103 -0.03266027
0000e0 f5 f2 3d bd 47 6a 24 be 08 62 c6 bd 68 4f 01 bd
       -0.04637428 -0.16056167 -0.09686667 -0.03156987
0000f0 c4 79 64 3d c6 2f 59 3d ba 3a 54 bd e3 99 cd bd
       0.055780187 0.053024076 -0.05181382 -0.10039117
000100 03 cb 36 3e 20 b6 81 3d 83 a7 18 3e 4a ab 76 3e
       0.1785088 0.06333566 0.1490765 0.24088779
000110 cf 40 c0 3d 3d 62 1c bc c4 29 b3 3c 99 1d c7 3d
       0.09387361 -0.009544906 0.021870501 0.09722442
000120 e5 25 fc 3d f9 6e f6 3d 93 fd 97 3d db 00 05 bd
       0.12311915 0.12032885 0.07421412 -0.03247152
000130 67 35 0e 3d 71 b3 c7 3c a2 d0 0a 3e 6b eb c4 bd
       0.034718897 0.024377557 0.1355615 -0.09615215
000140 2f 38 d6 3d fe 6d 7c 3d e5 3f d2 3d 81 07 38 3e
       0.10459935 0.061628334 0.10266093 0.17971613
000150 3e e7 22 3e 4e da 25 3d 29 58 d2 bd 2c e6 1c bd
       0.15908524 0.040491395 -0.102707215 -0.038305447
000160 84 24 64 bd 7c c8 7c 3d ba b4 61 3e 7c 1c 92 3d
       -0.055698887 0.061714634 0.22041598 0.07134339
000170 3d 6f 13 be e3 3c 01 bd 47 f7 84 3e 04 1f b8 bd
       -0.14397903 -0.031552207 0.25969908 -0.08990291
000180 1e 79 4a 3d 6f 7b aa bd 49 2e 42 3d e6 95 87 3e
       0.049431913 -0.08324324 0.047407422 0.2648155
000190 4b 33 7d 3e 16 c4 e5 3d cb af d1 bd c7 64 88 be
       0.24726598 0.11219041 -0.10238608 -0.26639387
0001a0 2e ae 86 be 53 81 31 bd 37 ac a8 3c 15 e0 a2 38
       -0.26304764 -0.043336224 0.020589931 7.7665005e-05
0001b0 25 d9 15 be d2 6f 77 bc bf 01 90 3d a8 4b 61 be
       -0.14633615 -0.015102344 0.07031583 -0.22001517
0001c0 7b 2a 05 3d 1b 09 2b be ac a7 dc 3d 9f 18 81 3e
       0.032511216 -0.16702692 0.10774168 0.25214097
0001d0 d0 af 17 3e 30 57 eb 3d e0 45 20 be e8 12 87 be
       0.14813161 0.11491239 -0.15651655 -0.26381612
0001e0 7d 55 86 be 34 98 56 be 33 cb bf bc 47 37 2e bd
       -0.26237097 -0.20956498 -0.023412323 -0.042533185
0001f0 d4 08 df bb 73 1b 5c 3e 97 aa be 3d 9a f0 66 be
       -0.0068064723 0.21494846 0.09309881 -0.2255272
000200 c6 07 4e bd d6 8c 4a be d0 40 4b 3e 46 55 25 3e
       -0.050300382 -0.19780287 0.19848943 0.1614581
000210 4f 2c 7c 3e 72 31 3c 3e b2 b7 bf bd 87 0e 5a be
       0.24626277 0.18378237 -0.09361209 -0.21294604
000220 b7 2b 7b be 61 3b 16 be 92 e4 6c bc 2c 74 d5 bd
       -0.24528395 -0.14671089 -0.014458792 -0.10422549
000230 f8 a5 18 3d b3 08 14 3e 49 0e f9 3d 06 2c 55 be
       0.037267655 0.14456443 0.12160928 -0.20817575
000240 88 14 2f bd b5 1f 7d be 02 48 60 3d 5f 06 05 3e
       -0.04274419 -0.24719127 0.054756172 0.12990712
000250 d3 ba 79 3e 98 cc 6e 3e 74 86 ad 3d 3d 15 c4 bd
       0.24387674 0.23320234 0.084729105 -0.095743634
000260 ec f5 15 be bd f5 d8 bd b9 43 2a bd c1 f8 5d 3d
       -0.14644593 -0.10593746 -0.04156849 0.05419231
000270 52 a3 13 3e db b8 ea 3b ac 23 f0 3d a7 47 b1 3c
       0.1441777 0.00716315 0.11725554 0.021640612
000280 5b e9 c5 3d 07 9f 57 be f1 d8 11 3e 1d 8d 0e 3e
       0.0966365 -0.21056758 0.14242913 0.13921018
000290 3c 98 72 3e 1c bd 0a 3e 39 da 89 3d 81 01 ec bc
       0.23690885 0.13548702 0.06731076 -0.02880931
0002a0 71 46 f1 bd 53 fb 3a 3d c6 68 12 3e f1 07 97 3d
       -0.11781014 0.045649838 0.1429778 0.073745616
0002b0 3e a6 0b 3e cd c9 ae 3d 59 49 4a bd 68 8a b7 bd
       0.13637635 0.08534584 -0.049386356 -0.08961946
0002c0 6a 77 8e 3e 23 70 7c 3e 1c 32 82 3e 93 f6 0c 3e
       0.2782548 0.24652152 0.25428855 0.13765936
0002d0 2b 46 2b 3e 77 15 0d 3e 3e 53 d8 3d 86 e0 0d bb
       0.16725986 0.1377772 0.10562752 -0.002164872
0002e0 19 b5 c2 bd be 44 98 3d b6 7c 02 3e 1e 86 0f 3c
       -0.09507198 0.074349865 0.12742886 0.008760003
0002f0 c5 21 ba 3d ad db 04 3d a9 07 c7 bc 83 1e 00 be
       0.09088472 0.03243606 -0.024295645 -0.1251164
000300 af 62 75 3e b9 cb 82 3e b4 b5 be 3d 22 f0 8e bd
       0.23963426 0.25546053 0.09312001 -0.069793954
000310 16 df a6 bd 04 4a 0a 3d d8 99 b7 3d 6c d0 4e 3d
       -0.08148019 0.033761993 0.0896489 0.050491735
000320 49 ed ca bb 57 7d 2a 3d fd b8 84 3c 5b 68 d2 3b
       -0.0061928374 0.04162344 0.01620149 0.0064211315
000330 4b 05 8c 3a 8b 07 fd 3d 15 98 02 3e 6b 37 6e 3e
       0.001068273 0.12354954 0.12753327 0.23263328
000340 c3 44 f6 3d 60 51 f5 3d 37 09 4e be cc 49 2d be
       0.12024834 0.11978412 -0.20120703 -0.16922683
000350 d3 5c bb bd 71 70 29 bd 5b 72 62 3c 17 1e dd 3d
       -0.09148564 -0.041366998 0.01382121 0.10796755
000360 18 1c b9 3d bf 1e 31 3d c2 c3 0e be d6 49 e9 bc
       0.090385616 0.043242212 -0.13941863 -0.02847759
000370 39 05 10 3e 35 46 3f 3e 7e a8 6f 3e 66 7f 1c 3e
       0.14064492 0.18679126 0.23404118 0.15282974
000380 84 3a f1 bd 3e e3 a5 bd e4 11 31 be 20 77 82 be
       -0.11778739 -0.08099984 -0.17291981 -0.2548151
000390 7b ab 51 be 63 99 52 be 0f ac 37 be dd e5 6b bd
       -0.20475571 -0.20566325 -0.17936729 -0.05759226
0003a0 74 6a 18 be 94 1b f7 bd 69 92 3e be 21 f2 b8 bd
       -0.14884359 -0.12065807 -0.18610539 -0.090305574
0003b0 ac 41 3b 3d 83 c9 be 3d 5f ed 1d be 43 1a 1d be
       0.045716926 0.09315779 -0.15422581 -0.1534205
0003c0 30 75 5c 3d 42 db ad ba 60 62 c9 3c 14 37 a6 3d
       0.053822696 -0.0013264196 0.024583042 0.08115974
0003d0 a2 90 c9 bd 59 d0 f2 bd 10 0a 06 be 40 dd 97 bc
       -0.0984204 -0.118561454 -0.13089776 -0.018538117
0003e0 5d 13 f0 bd b4 20 f2 bd 1e c7 70 be ae 08 1d bd
       -0.11722443 -0.11822644 -0.23513457 -0.038338356
0003f0 60 d3 42 bd a7 5d b5 bd f4 79 2a be 93 c0 3b be
       -0.047564864 -0.088557534 -0.16648084 -0.1833518

fc2.weight f4 [64, 64]
000000 0d ee 1a 3e 17 81 26 3e a8 0e a1 be 0e ef 9f bd
       0.15129872 0.16260181 -0.31456494 -0.07809268
000010 20 7a 50 bd 10 98 93 3e a3 8a e2 bd 6d 97 5a be
       -0.050897717 0.28826952 -0.11061599 -0.21346827
000020 3a eb 24 be e1 13 1e 3e 86 d5 a5 bd 49 b5 98 be
       -0.16105357 0.1543727 -0.08097367 -0.2982581
000030 ff 27 6c 3e 07 a1 0e be 23 48 3a be 31 b8 8a 3d
       0.23062132 -0.13928615 -0.1819158 0.06773413
000040 d8 95 96 be 26 ab 9d be 7e c4 18 3e f6 2e 30 be
       -0.29411197 -0.30794638 0.14918706 -0.17205414
000050 35 1b 8c 3e 85 45 a8 3d 01 b3 b0 bd 5e f4 97 be
       0.27364507 0.08216385 -0.08627892 -0.29678625
000060 7a ad 9e 3e 5a 0e 18 3e 71 e2 21 bd fb 0c a6 bd
       0.30991727 0.14849225 -0.039522592 -0.081079446
000070 ab 7c 2b 3d 60 55 29 be ea 93 14 3e 3e e9 f9 3d
       0.04186694 -0.16536474 0.1450955 0.122026905
000080 55 aa 4b 3e 65 b7 d6 3d 4b ad 3b bd e9 fd e2 bd
       0.19889195 0.104841985 -0.045819562 -0.11083586
000090 09 61 93 3e 05 05 35 be 92 d9 7d 3d 17 68 b8 bd
       0.2878497 -0.17677696 0.06197507 -0.090042286
0000a0 a3 97 f4 3c 1b 13 15 3e 5e 05 03 3b 7b ed 1c 3e
       0.029857462 0.1455807 0.0019992213 0.15324967
0000b0 58 b8 08 3e f5 4f e2 3d aa 86 7b 3e c4 88 0a bd
       0.13351572 0.11050407 0.24563089 -0.033821836
0000c0 67 3f d1 bd 86 fb 10 be f6 b7 61 3e d3 b0 a1 be
       -0.10217171 -0.14158449 0.22042832 -0.3158022
0000d0 7c b6 19 3e 24 5e 17 3e 19 2e 99 be 7e 57 d1 3d
       0.15011019 0.14782006 -0.29917982 0.10221766
0000e0 1c 6d 90 3e a8 e9 6d 3e 43 5c 3b be 2f 53 d3 bd
       0.28208244 0.23233664 -0.18296914 -0.103186004
0000f0 50 86 46 bc 92 ab 51 3e a9 9b 32 3d aa c6 76 3c
       -0.0121169835 0.20475605 0.04360548 0.015062014
000100 8b b4 d7 3d b4 54 24 3e d2 89 98 be 10 e8 6a bd
       0.10532483 0.16047937 -0.2979265 -0.05735022
000110 ff a4 6d bb 26 df 7c 3d fe 8d 8d 3e 93 73 0c be
       -0.0036261675 0.06173625 0.27647394 -0.13715963
000120 6d 8b 26 3e b4 fb 65 be a7 83 5e be af 4d 02 be
       0.16264124 -0.22459298 -0.21729909 -0.12724946
000130 95 b0 82 3c b9 09 db bd da 60 01 3e 81 d5 b9 bd
       0.015953341 -0.10695214 0.12634602 -0.09073926
000140 71 e5 67 be 6b 50 2a be 72 7a d4 3d cc f5 2e be
       -0.22646119 -0.1663224 0.10374917 -0.17085952
000150 9a bb 34 be 99 b5 9a 3e d6 15 cb 3c e5 9b ff bc
       -0.1764969 0.30216673 0.024790686 -0.031202266
000160 56 20 ba 3d 4d a8 17 3e 55 88 6c 3e 83 6b a0 3d
       0.09088199 0.14810295 0.23098882 0.07833006
000170 f5 43 96 be 5f 97 0a 3e 68 93 4b be 94 5f 04 be
       -0.29348722 0.13534306 -0.1988045 -0.12927085
000180 13 8e c4 3d 33 d2 82 bd 57 17 0f 3c 62 bd 89 bd
       0.09597411 -0.063877486 0.008733592 -0.06725575
000190 63 ed 6b 3e 99 02 e9 bd ac 51 fc bd c2 6e 9c be
       0.23039775 -0.113774486 -0.12320265 -0.30553252
0001a0 1c e4 ad bd 75 0b 7a 3e d0 e5 99 bc b5 4e 91 3d
       -0.08490774 0.24418433 -0.018786341 0.0709509
0001b0 fb 1b 2c bd c7 7d 9c bd 03 fa 9b 3e 24 69 05 3e
       -0.04201887 -0.076411776 0.3046418 0.13028389
0001c0 54 8d 24 be cb f4 24 be b0 94 98 3e dc 75 26 be
       -0.16069537 -0.16109006 0.2980094 -0.16255897
0001d0 30 3b 6d 3e 36 fb 19 3d dc 94 8a 3d 52 36 1c 3c
       0.2316711 0.03759309 0.06766674 0.009534435
0001e0 57 4a 45 3e b0 7f 1e 3e e9 bc 61 3d ba ba e6 3c
       0.1926664 0.15478396 0.0551118 0.02816521
0001f0 1d 07 d3 3d e5 6d 1e be 28 3a 83 3e 19 bb 84 bd
       0.10304091 -0.15471609 0.25630307 -0.064809985
000200 d3 88 98 3d 66 54 60 bc 9a 90 07 3e 44 c9 5a 3e
       0.07447972 -0.013691997 0.13238755 0.21365839
000210 28 ce 9e be e6 e2 86 bd 23 db c7 3d 86 6a 58 3c
       -0.3101666 -0.06586246 0.09758594 0.013208991
000220 d3 53 e9 bd bf 58 a0 bc c1 08 3e 3e 94 5a 8b 3e
       -0.11392941 -0.019573567 0.18558027 0.27217543
000230 f9 1e 0d 3e a3 d8 c6 bd 24 12 89 be a7 e6 a6 3d
       0.13781346 -0.09709289 -0.26771653 0.08149462
000240 33 40 f0 bd 0c 5f 6b 3d 72 56 ea bd 3d 50 02 be
       -0.11730995 0.05746369 -0.114422694 -0.12725921
000250 c3 24 f5 bd d4 6d 52 be fb 2f 99 3e c0 e8 54 bc
       -0.11969902 -0.20549709 0.2991942 -0.012994945
000260 82 14 50 be 56 d7 a0 bd b1 72 22 3e 19 57 ec 3d
       -0.20320323 -0.07853572 0.15864064 0.1154005
000270 b5 f1 95 be d2 cb bd 3d f7 62 2a 3e 46 49 2a be
       -0.2928597 0.09267391 0.16639315 -0.16629514
000280 1c af 1e 3e b2 37 98 3e e7 8e 40 3d 9f 80 fd 3d
       0.15496486 0.29729992 0.047011282 0.12378048
000290 b1 7c a1 be a5 20 23 3e 3b 66 3f be d4 17 12 be
       -0.31540444 0.15930422 -0.18691342 -0.14266902
0002a0 df dc 6f bd b3 18 27 be a7 f6 3a 3e 43 43 03 3b
       -0.05856025 -0.16318016 0.18258153 0.0020029105
0002b0 cb e6 ba bd 03 9e 4b bd f7 f5 95 be cc f9 8d 3e
       -0.091260515 -0.04971124 -0.2928922 0.27729642
0002c0 86 53 6d 3e 6d 86 5d be ba 9e 31 bd f6 5d 3f 3d
       0.23176393 -0.2163331 -0.043364264 0.046720468
0002d0 2f e4 d8 3d 4c 3a 09 3e 24 fe 14 be 6a 60 a4 be
       0.105903976 0.13401145 -0.14550072 -0.32104808
0002e0 bd 29 1f 3e 78 1d 9d be 92 d6 b6 3c 0e d0 17 3e
       0.15543266 -0.30686545 0.022319112 0.1482546
0002f0 87 de 2b be fb df c2 bd fc fa 15 be e6 c2 bc 3d
       -0.16784106 -0.09515377 -0.14646524 0.092168614
000300 a5 69 14 3e bd 8e a1 be 32 f9 9c 3e b2 a9 95 be
       0.14493425 -0.31554213 0.3065887 -0.2923103
000310 4c 39 26 3e 65 23 3b be ad 75 f8 3d fb 01 6f 3e
       0.16232795 -0.1827522 0.1213182 0.23340599
000320 0e 2d ae 3c a6 fc 59 be 4a d7 26 3e 26 c0 43 be
       0.021261718 -0.21287784 0.16293064 -0.19116268
000330 af 33 64 3d 6a bf 04 3e a7 4a 03 bd 05 b3 c9 3c
       0.05571335 0.12963644 -0.032053616 0.024621496
000340 db 78 84 bd 70 a1 8d be 3c 40 a2 be 0a 67 9d 3e
       -0.06468364 -0.2766223 -0.31689632 0.30742675
000350 fc f0 18 be f6 e0 99 be e5 e8 ed bd 67 38 9c 3e
       -0.14935678 -0.30054444 -0.11616687 0.30511782
000360 5e bc 92 be 01 3f 8d 3d 41 97 f1 bd d7 e3 30 3e
       -0.28659338 0.06896783 -0.117964275 0.17274414
000370 69 84 9c 3e 09 72 86 be 3a 83 54 3e ad be a0 bd
       0.3056977 -0.26258877 0.20753184 -0.078488685
000380 93 66 a0 be 5c 63 d4 bd 11 0b 41 bd e0 01 6c bc
       -0.31328258 -0.10370514 -0.047129694 -0.014404744
000390 9b 87 a1 be 37 5c 01 3e ac 00 9c 3c 49 bd 15 3e
       -0.3154877 0.12632833 0.01904329 0.14622988
0003a0 05 9d 15 3e f6 8c 31 3d 13 fa 16 3d ca 13 ac 3d
       0.1461068 0.04334732 0.036859583 0.08402212
0003b0 92 3c 39 be 83 58 e7 bd 3e 19 1c 3e 0e e3 2c 3e
       -0.18089512 -0.11296179 0.15244004 0.1688349
0003c0 ce 92 9a bd 6f f3 53 3e d7 4e fb 3d c5 d6 7d 3e
       -0.07547532 0.20698331 0.12270897 0.2478896
0003d0 9e 50 5d be 58 b4 8f be 64 e3 25 3e a4 27 60 bd
       -0.21612784 -0.2806728 0.16200024 -0.054725304
0003e0 64 30 a3 be eb c4 95 3e f2 85 22 3e 65 f2 22 be
       -0.31872857 0.292518 0.15871409 -0.15912779
0003f0 28 94 23 3e d2 94 1b 3e d5 5a 50 3e b7 ca 2b be
       0.15974486 0.15193489 0.2034715 -0.16776548

fc3.weight f4 [64, 64]
000000 6d 9c da bd 5c b9 09 be 21 9c 6b 3e e9 f3 20 3e
       -0.10674367 -0.13449615 0.23008777 0.15718044
000010 52 75 21 3e 25 ce 6f 3e f5 c0 96 bd aa 4f c8 3d
       0.1576741 0.23418482 -0.073610224 0.0978082
000020 d2 be 58 3c 3b a3 9a 3d 52 18 2c be 2c 42 9c 3e
       0.013229089 0.07550665 -0.16806152 0.30519235
000030 c1 6a 95 3d 3c 41 b1 3d 3b ab ef bc 0b 8c d9 bd
       0.07295752 0.086550206 -0.029256454 -0.10622414
000040 bd cc 8e 3e 7b 61 7e 3d fb a7 5e bd ef cb 0b be
       0.27890578 0.062104683 -0.054359417 -0.13652013
000050 ab 1f 81 bc 16 f3 1b 3e df 58 7d 3e 2a 52 e6 bd
       -0.01576217 0.15229449 0.24740933 -0.1124614
000060 4a d6 2e 3e 78 c1 ac 3d 85 c5 80 3d fa 64 c9 bd
       0.17073932 0.08435339 0.06287674 -0.09833713
000070 fe 02 97 3d 1d 04 09 3e 0b 01 5a be 2d 96 1c be
       0.073736176 0.13380475 -0.2128946 -0.15291663
000080 8a 5b 8b bd ac 81 c4 3c 78 58 e7 bc 5e b3 da bd
       -0.06804569 0.023987614 -0.028240427 -0.10678743
000090 92 25 a8 3b aa 35 cb bd c9 51 9d bd 50 ca d4 3c
       0.005131432 -0.09922345 -0.07681615 0.025975376
0000a0 66 3d 9a bd 12 ab 29 be 9f 9e 7d be 5d 27 de 3b
       -0.07531242 -0.16569164 -0.2476754 0.006779595
0000b0 60 3c 6a bd 73 f9 cb bc fd 44 ee bc 23 32 99 3c
       -0.057186484 -0.02489922 -0.02908563 0.018700665
0000c0 b9 d3 46 3e 1e 3b 2b bd a6 43 4a be 90 d2 4d 3d
       0.19416703 -0.041804425 -0.19752368 0.050249636
0000d0 14 e8 00 3e 27 4d 8a 3e b1 53 0e 3e 9e 3c 8a 3c
       0.12588531 0.27011988 0.13899113 0.016874608
0000e0 ef 54 1b 3d e8 97 8f bd b4 f1 b5 3d 98 80 80 bd
       0.037922796 -0.07011396 0.08883992 -0.06274527
0000f0 24 e5 50 3e 92 f5 cf 3d 20 eb d5 3d 3c 5d eb 3d
       0.2039991 0.10154261 0.10445237 0.114923924
000100 e8 02 1e 3d 15 4f 8e bc cd bc 88 bc e7 24 5c 3e
       0.03857699 -0.017371694 -0.01669159 0.21498452
000110 a7 43 7c be 6c 43 3f 3e 12 1a 75 3d 4a fd c5 3d
       -0.24635182 0.18678063 0.059839316 0.09667452
000120 d4 9e 03 bd 78 e4 16 3d bb 5a 64 bd aa 1e 6a bd
       -0.032133892 0.03683898 -0.05575059 -0.05715815
000130 49 d9 80 3d 87 a9 52 3c 67 e2 9a bd d8 55 db 3b
       0.06291444 0.012857801 -0.07562714 0.006693583
000140 71 d2 c9 3d aa 7a 37 be d5 9a 2c be 8b 9d 9a 3d
       0.09854592 -0.17917886 -0.16855939 0.0754958
000150 68 5a 49 3e b2 8d 8b bd ee 68 26 be a0 91 96 bc
       0.19663393 -0.068141356 -0.16250965 -0.018379986
000160 10 0e 82 bd a6 a0 e1 3b 50 f2 8e be b4 a0 27 3d
       -0.063503385 0.006885606 -0.27919245 0.040924743
000170 f2 5e 9b bd 9d 31 b5 bd 4a 0c fd bc 17 4a 01 be
       -0.07586469 -0.088473536 -0.030889649 -0.1262592
000180 93 af 04 be fb 8e 13 bc 1d 54 54 be f8 33 2a 3e
       -0.12957601 -0.009006257 -0.20735212 0.16621387
000190 d3 fb d6 bd 1c 6a c1 3d 2d d5 6d 3e 67 03 54 3d
       -0.104972504 0.09444067 0.23225851 0.051761057
0001a0 5b c7 0e b7 08 7b 91 3e 19 2a 8c bd 88 da 30 bd
       -8.510276e-06 0.28414178 -0.06843967 -0.043177158
0001b0 02 3a e7 bd bc d6 4c 3e 9d d6 91 3c 88 d5 5f 3e
       -0.11290361 0.2000379 0.01780253 0.218588
0001c0 fc 1d 92 3e 10 c4 0e 3e bd f4 a4 bd 1a a3 88 3b
       0.285385 0.1394198 -0.080544926 0.004169834
0001d0 6f 76 59 bc dc 25 18 3e 4a be cd bd 21 6e 1d bd
       -0.013272866 0.14858192 -0.100460604 -0.038435105
0001e0 d1 69 d9 bd 55 a5 ef 3b a5 fe ca 3b a9 78 03 3e
       -0.10615886 0.0073134103 0.006194907 0.12838997
0001f0 6d 9b 68 be be 93 93 3e cd 95 a7 3d 99 21 5c be
       -0.2271554 0.28823656 0.08182869 -0.21497191
000200 ce c4 9c bd 6f 59 3e be 61 9e d1 3d 0c ba 8b 3e
       -0.07654725 -0.18588804 0.102352865 0.2729038
000210 fd 85 65 3e a5 bd 1b be 2c c6 22 3d 72 73 31 be
       0.22414394 -0.15209062 0.039739773 -0.17329195
000220 e6 b0 28 3e e7 29 f6 3d b7 aa 53 3e f3 be 53 3e
       0.16473731 0.12019711 0.20670591 0.2067831
000230 3e 64 8a bc 98 98 11 3e 0c dc f9 3d b1 da 90 bd
       -0.016893502 0.14218366 0.12200174 -0.07072962
000240 44 fb 6b be ed c7 4e 3e 3c a7 36 3e 18 80 89 be
       -0.23045069 0.20193453 0.17837232 -0.2685554
000250 dd a7 c7 bc 69 8b 75 be ac ca e3 3c 59 89 b2 bd
       -0.024372036 -0.23978962 0.027806602 -0.08717603
000260 0f f4 38 be 35 04 7d be 3b 00 9e be c5 7a 98 bd
       -0.18061851 -0.24708636 -0.3085955 -0.074452914
000270 5e 97 3c bd 7a 06 6d 3c fe 48 2b be 08 09 6e 3e
       -0.046042792 0.014466876 -0.16727063 0.23245633
000280 aa 95 db 3d b7 96 96 3e 88 64 4e 3c 68 3d f9 3d
       0.107219055 0.2941186 0.012597211 0.121699154
000290 c2 85 25 be 12 ad 8f 3e 99 fe e6 3d fb 88 a6 3d
       -0.16164306 0.2806173 0.112790294 0.08131596
0002a0 dd 47 ac bc 3f 25 a9 bd 0b 4f 92 3d 2d aa 20 be
       -0.02103036 -0.08259057 0.071439825 -0.15689917
0002b0 ab 51 f4 3d 9f 80 ce 3d 95 1b 14 bc 51 45 37 be
       0.119296394 0.10083126 -0.009039779 -0.17897536
0002c0 08 fc 61 be 1c 32 98 3d 40 16 0d 3e 6e 87 aa 3d
       -0.22068799 0.074314326 0.13778019 0.083266124
0002d0 9c d7 8a 3e 7d 1b 9c be 8d 7f b9 bd cb 2b 1e 3e
       0.27117622 -0.30489722 -0.090575315 0.15446393
0002e0 e0 7b ee bd a4 6e b2 bd f4 9f e1 3c 7b ce b5 bd
       -0.11644721 -0.08712509 0.027542092 -0.08877274
0002f0 52 39 0b 3d e1 ea 21 3e 93 ac 88 3e fb 6e 82 3e
       0.03399021 0.15812255 0.26694164 0.25475296
000300 3a 01 83 ba 8b ae 36 be e6 c0 25 3e e1 3d c6 3d
       -0.0009994872 -0.1784002 0.16186866 0.09679771
000310 f3 f8 83 3c 40 39 b8 3d 86 0a 13 3e 99 eb 6b 3d
       0.01610992 0.089952946 0.14359483 0.05759773
000320 69 6a 9b 3d 71 b6 2d be 50 4b 20 3e e2 89 0b ba
       0.075886555 -0.16964127 0.1565373 -0.00053229753
000330 6c 76 2b bd 33 69 0f 3e 51 f5 a1 bd ba 2b ed bd
       -0.041860983 0.14004974 -0.079081185 -0.11580606
000340 2e 2a 58 3d a4 69 21 3e da 13 81 3e 08 22 d3 bd
       0.0527746 0.15762955 0.25210458 -0.10309225
000350 d6 c9 17 3e 4a 3d b2 bd bd e3 6b 3d 8f 54 d8 bc
       0.14823088 -0.08703096 0.057590235 -0.026407508
000360 52 56 56 bd d8 cf 96 bd 77 b8 50 bd 27 38 69 3d
       -0.052328415 -0.07363862 -0.05095717 0.056938317
000370 45 70 fd 3c c5 9d 42 3e 60 29 f7 bc 1e d2 59 3e
       0.030937323 0.19005497 -0.030171096 0.2127156
000380 db ac 9e bc 51 0d b2 3d ff 92 80 3e fa 1e 57 3e
       -0.019369533 0.08693946 0.2511215 0.2100791
000390 81 b0 23 be c5 ff b5 3d 38 e6 d9 bd d6 bd 10 3b
       -0.159853 0.08886675 -0.10639614 0.0022085807
0003a0 e1 05 78 3c df 06 91 be 46 6c 97 bc 4d fd a4 3d
       0.01513812 -0.28325555 -0.018484246 0.08056126
0003b0 19 49 9b 3d d5 0e 7d bc 2b da a7 3d b2 87 8f bd
       0.07582302 -0.015445431 0.08195909 -0.07008304
0003c0 65 96 18 be ce bd 3f 3e 4e ed d3 3d f9 4f d2 3d
       -0.14901121 0.18724748 0.10347997 0.1026916
0003d0 d1 d2 69 bd 4c 5e 4e 3e 3f e1 25 3d ad a1 4b bd
       -0.057085816 0.20153159 0.040498015 -0.049714733
0003e0 7c 11 f4 bc ab fb 4a bd 61 c8 d7 3d 73 b9 9d be
       -0.029793493 -0.049556416 0.10536266 -0.3080555
0003f0 ee 3a 95 3c 5b c9 e9 bd 79 d9 a5 3d 28 cf 25 3e
       0.018216576 -0.11415359 0.0809812 0.16192305

fc_last.weight f4 [10, 64]
000000 05 ca 35 be c2 54 44 bc 55 71 51 3e cc 3a 8c 3e
       -0.17752846 -0.011983098 0.20453389 0.27388608
000010 0e 60 2a 3d e4 ec 99 3b 99 d6 01 3e f7 5a a6 be
       0.04159551 0.004697429 0.12679519 -0.32491276
000020 ca 3a 48 be bb d1 dd 3d 54 b7 35 3d f5 ae 35 3e
       -0.19553676 0.108310185 0.04436429 0.17742522
000030 e8 89 42 be 3e bf b1 be da f1 c3 bc 27 52 0a 3e
       -0.1899792 -0.3471622 -0.023919035 0.13507901
000040 31 ae 94 3e fb 70 06 3e cb 2a dc bd 98 52 b1 be
       0.29039147 0.13129036 -0.107503496 -0.34633327
000050 45 10 51 be ae 45 33 3e 54 c5 0b 3e 94 91 57 be
       -0.20416363 0.1750705 0.13649493 -0.21051627
000060 32 0d c5 bd 94 88 12 be d7 41 01 3d 23 24 e1 bd
       -0.096216574 -0.14309913 0.03155693 -0.10993221
000070 2e 79 81 3e e3 91 93 be c9 20 1f 3e 15 7a b0 3c
       0.25287765 -0.2882224 0.1553985 0.021542588
000080 2f 2b 8f be fd c3 9b be 9d e5 a4 3d 0c 47 92 be
       -0.27962634 -0.30422965 0.08051608 -0.2856983
000090 ba 0d 52 be dc e9 b0 be a6 1b 4b be 75 41 09 bc
       -0.20513049 -0.3455342 -0.19834766 -0.008377423
0000a0 45 78 29 3e ff 77 f6 3d bd 3e cc bd 9a b0 31 3e
       0.16549785 0.12034606 -0.09972904 0.17352524
0000b0 82 32 a7 3d f6 be 9d 3e 91 28 22 bb 66 0e c9 bc
       0.081639305 0.30809754 -0.0024743418 -0.024542999
0000c0 c9 7a 02 3e 66 29 d3 bd 11 24 79 3c 74 2e 8e 3d
       0.12742151 -0.103106305 0.015206353 0.06942454
0000d0 9c f6 77 3d 02 77 9c 3e 7a e5 ba bb 1c 26 b1 be
       0.06053792 0.30559546 -0.0057036253 -0.34599388
0000e0 81 01 b4 be ac ac 80 3d b4 29 b4 3e 19 f0 b1 be
       -0.35157397 0.062829345 0.35188067 -0.34753492
0000f0 f0 1f a4 be 48 ea 97 3c f4 64 46 be ed 6f aa bd
       -0.32055616 0.018544331 -0.19374448 -0.083221294
000100 62 41 ce 3d 49 50 4f 3e b3 00 50 be 8e b9 bb bd
       0.100710645 0.2024547 -0.20312767 -0.09166251
000110 3a e1 b3 be 56 76 a5 3d 52 bb b0 3e 43 e2 36 3e
       -0.35132772 0.080792114 0.34517914 0.1785975
000120 18 41 fc 3d 71 fa a7 be 8b d0 00 3e b9 74 a4 3d
       0.12317103 -0.3280826 0.12579553 0.080300756
000130 07 77 a6 3c 2b 9d b2 3e 2a 3a b0 be 76 fe a9 be
       0.020320429 0.34885535 -0.34419376 -0.3320195
000140 4e ea 35 be 40 d5 a6 be c2 0f 9f 3e cb 7f 33 3d
       -0.17765161 -0.32584572 0.3106671 0.043823045
000150 f5 34 00 3e 2c 6c 61 3d 2a 71 1d 3e 72 8d d0 3c
       0.12520202 0.0550348 0.153752 0.025458071
000160 97 d8 b1 bd 84 e0 2c 3e e6 0e b3 be 89 87 42 3d
       -0.08683889 0.16882521 -0.34972304 0.047492538
000170 17 55 65 be 9d 91 7e 3c 16 df 65 bd 54 49 2d 3e
       -0.2239574 0.015537647 -0.056120954 0.16922504
000180 d7 a6 2c 3e d5 2c b1 be f7 ca e0 3c 54 a7 5d 3c
       0.1686052 -0.34604517 0.027440531 0.013528664
000190 8f e9 b5 be 11 30 7d bc 4f 2f 6f 3e 91 a6 d0 3d
       -0.35529754 -0.015453354 0.2335789 0.1018802
0001a0 ca ee 9f be d5 68 ae 3d 4f fd 0c 3e b4 b4 12 bd
       -0.3123687 0.08516089 0.13768505 -0.035816863
0001b0 24 7d b1 3d df 4e ef bd 80 35 a8 be 5c 1b b2 3e
       0.08666447 -0.11684965 -0.32853317 0.347865
0001c0 9f db af be c3 15 d7 3d cf 9f 38 3e 00 7b b2 be
       -0.34347245 0.105021976 0.18029712 -0.34859467
0001d0 55 65 6d 3e f9 32 41 be 82 67 97 bd 08 84 ed 3d
       0.23183186 -0.18867101 -0.073927894 0.115974486
0001e0 c7 a5 cc 3d 0f 9c 54 3c 57 e5 a1 3d 43 98 ae 3e
       0.09992557 0.01297666 0.07905071 0.3410054
0001f0 ed dc 79 3e 70 09 6f 3e 49 82 19 3e d6 58 f4 3d
       0.24400683 0.23343444 0.14991106 0.119310066
000200 07 12 27 3e 1f aa af 3e ae e5 ad be 07 15 16 be
       0.1631547 0.3430948 -0.33964294 -0.14656459
000210 0e e7 59 bc 31 19 62 3e 0a 5d 3b be c3 c3 5f 3d
       -0.013299717 0.22079922 -0.1829721 0.054630052
000220 f6 8b fe bd 13 68 e1 3c 43 8f a4 3d e2 b5 ab be
       -0.12429039 0.027515447 0.080351375 -0.33537203
000230 7e 09 96 3d 40 76 93 3c 47 6a 7f 3d 23 a8 48 3d
       0.07326029 0.018000722 0.062357213 0.048988473
000240 29 0c 08 be 8a 4e a2 3e 40 04 4f be ae 00 8d be
       -0.13285889 0.31700546 -0.20216465 -0.2753958
000250 e5 95 ba 3d fd 4a 09 3d 9d 10 b4 be ab bc 99 be
       0.09110621 0.03351878 -0.35168925 -0.30026755
000260 a6 c5 db 3b 10 41 6d be 40 e6 0d 3e f1 b5 08 3e
       0.006706911 -0.2316935 0.13857365 0.13350655
000270 cc 10 ef 3d 75 e8 14 bd 58 d4 8a bd 9f 68 64 3d
       0.116731256 -0.0363545 -0.067787826 0.055763837
000280 33 87 aa be c6 34 09 3e e2 9e b1 be bd 40 70 be
       -0.33306274 0.13399038 -0.3469153 -0.23462196
000290 6a 17 2b bd 12 87 39 be e8 4e 39 3e 40 1f 9a 3c
       -0.041770376 -0.18117931 0.18096507 0.01881373
0002a0 2a 77 4d be 2a 0c 9f 3e 53 10 36 3e dd bf 28 3e
       -0.20064989 0.31063968 0.17779665 0.1647944
0002b0 7b 14 29 be 06 97 36 3e 44 ec aa be f6 85 a0 be
       -0.16511719 0.17831048 -0.3338338 -0.31352204
0002c0 46 ca 98 3b 65 f7 ae 3d a8 0b 50 3e d9 67 c2 3c
       0.0046627847 0.085432805 0.20316947 0.023731159
0002d0 d4 f1 b2 3e 45 4b 12 be 10 13 b4 3d d6 b6 1b be
       0.34950125 -0.14286526 0.087926984 -0.15206465
0002e0 9f 71 e4 bd e4 3f c4 3d 12 c6 f6 bd 17 f4 a7 3e
       -0.11154484 0.09582499 -0.12049498 0.32803413
0002f0 36 48 a3 be 93 09 18 3e 26 e6 8d 3d c9 83 35 be
       -0.3189103 0.14847402 0.06928663 -0.17726053
000300 6f b9 c9 bd 50 a5 2c 3d 1e 91 88 3e ab 09 2f 3e
       -0.09849822 0.04214984 0.26673216 0.17093532
000310 d3 23 cf bd 2c 24 d0 3d db a4 b2 be 88 06 ee bb
       -0.10114255 0.10163149 -0.348914 -0.007263962
000320 3c c8 8a 3e 83 85 2f be 66 de ef 3c a7 c4 3d bc
       0.27105892 -0.17140774 0.029280853 -0.01158253
000330 f4 8a d5 3d 3e e8 4c be 91 e4 20 3e 76 3a 2c 3e
       0.10426894 -0.20010468 0.15712191 0.16819176
000340 6a 98 a8 be f4 e8 59 3e 86 0f b3 be b6 ff 9f bd
       -0.32928783 0.21280271 -0.3497278 -0.07812445
000350 55 cd 8f 3d b7 7c c1 bd 5c 93 cd bd 06 d0 95 3e
       0.07021586 -0.094476156 -0.10037872 0.29260272
000360 3f c8 84 be e4 46 d7 bd b4 f2 a0 3d f0 48 0f 3e
       -0.25934026 -0.10511568 0.07858792 0.13992667
000370 43 98 a0 bc 2a 62 b3 be 94 32 a6 3c a2 16 c7 bd
       -0.019603854 -0.3503583 0.02028779 -0.09721114
000380 e4 a2 11 3b 3c cc 3a be 44 0b 82 be f8 06 27 3e
       0.0022222335 -0.18241972 -0.2539922 0.16311252
000390 dd 09 bc 3d 5c 98 b2 3e 4e 1e 4b 3e a8 df 51 bd
       0.09181569 0.34881866 0.19835779 -0.051238686
0003a0 34 f3 98 bd 9f a4 8c bd a9 13 9e be 74 92 37 bd
       -0.07468262 -0.068673365 -0.30874375 -0.044817403
0003b0 da 15 13 be ab 95 d5 bb f5 a8 25 be 31 ab 19 3d
       -0.14363804 -0.006518086 -0.16177733 0.037516776
0003c0 a0 22 e9 bc 7d 73 f1 bd 13 87 94 bd 21 44 0e 3e
       -0.028458893 -0.11789606 -0.07252326 0.13893177
0003d0 87 5b 43 be 2c 16 d3 bd 59 58 a8 bd 99 89 be bc
       -0.19077884 -0.10306963 -0.08219976 -0.023258971
0003e0 c0 1d dc 3d 0c 2c a6 3d df 3e 83 be f0 a6 98 bc
       0.10747862 0.0811387 -0.25633904 -0.01863429
0003f0 a1 6b 31 3e b1 d3 71 be f9 34 b3 bc b3 f5 21 3d
       0.17326213 -0.2361591 -0.021875845 0.039540958
